Equalizer4LayerReLU.pth (torch, 9744 bytes, 7 tensors)

weight f4 [16, 64]
000000 89 70 72 bb ac 84 96 3b 7e c0 d5 bb 04 b0 88 3b
       -0.0036993346 0.0045934524 -0.006523191 0.0041713733
000010 e0 e8 dd b8 43 c4 00 bc ff aa ac ba 9b 6e be 3b
       -0.000105814775 -0.007859292 -0.0013173519 0.005811525
000020 5a 0d 9e bb 1c cb d9 bb 39 bf 0d 3c e6 7a a9 3a
       -0.004823369 -0.006646527 0.008651548 0.0012930303
000030 5e dc f8 ba 73 e8 18 ba 9d 05 1f bc 60 16 71 3a
       -0.0018986573 -0.00058329775 -0.009705928 0.00091967545
000040 17 e0 c4 3a 47 a5 35 3a d8 24 b8 b8 dc c7 86 bb
       0.0015020397 0.00069292303 -8.7806664e-05 -0.0041131806
000050 9f c6 2c 3c 87 18 1f 3b f9 e8 a6 bb 3a 20 3c 3a
       0.010545402 0.0024276094 -0.0050936905 0.0007176433
000060 17 a1 39 3c 75 54 8a ba 9c 74 85 3a 5c 93 73 3b
       0.011329911 -0.0010553735 0.0010181847 0.003716669
000070 cf 39 9e 3b c4 41 dc 3b e1 3a b9 3b f0 3e 9a 3c
       0.0048286687 0.006721707 0.005652771 0.018828839
000080 a6 b1 b3 3f 2d 3d 30 3d 68 18 11 3c 39 bc 00 3c
       1.4038589 0.04302709 0.008855917 0.007857376
000090 2e 20 e0 3a 94 70 09 bc 0f 8f ab 3b 85 e4 0f ba
       0.0017099434 -0.008388657 0.00523556 -0.0005489069
0000a0 6e cf d9 b9 19 40 29 3a 78 e5 0b b7 09 7d 93 3a
       -0.00041544012 0.00064563897 -8.338473e-06 0.0011252473
0000b0 28 0a 3e ba 8a 99 4e bb cb c5 4f 3b 72 b9 cd 3b
       -0.0007249438 -0.0031524622 0.0031703587 0.0062782103
0000c0 63 39 f9 ba 95 f3 ad b9 48 2b e5 3a ed 44 a9 39
       -0.0019014295 -0.00033178614 0.0017484212 0.00032285546
0000d0 bd 4a b2 3a 36 97 2c 3b c0 ca 21 3b 55 47 e1 ba
       0.0013602596 0.0026335246 0.0024687499 -0.0017187396
0000e0 71 01 3b 3c b6 bc 86 bb d3 21 85 ba eb 24 a6 bb
       0.011413918 -0.0041118516 -0.0010157175 -0.005070319
0000f0 ab e1 0d ba 26 de 19 3b 95 e3 2c bb 43 1b 0c 3c
       -0.00054123503 0.0023478358 -0.0026380767 0.008551422
000100 5c a3 78 3a 80 a8 79 bc 47 28 13 3d 0e ce fa 3b
       0.00094847917 -0.015237927 0.035927083 0.007653958
000110 1e 6e db bb 67 0c f5 3c 57 ae 4b bb 77 3b fa bc
       -0.0066964766 0.02991314 -0.0031079256 -0.030545933
000120 62 8c 10 3c 74 9e 85 ba 48 34 db bc 41 64 51 3b
       0.008822532 -0.0010194317 -0.026758328 0.0031950625
000130 ac 22 63 ba e3 8e cd 3a e9 56 4d 3c aa 37 f4 bb
       -0.00086645293 0.0015682842 0.012532928 -0.0074529247
000140 48 1d 3c bc e0 34 0e ba d8 98 2c 3c 41 15 ec 3b
       -0.011481591 -0.0005424749 0.010534488 0.007204682
000150 b0 d2 09 bd 66 a2 77 ba 51 2e 7d 3c f4 29 a6 bb
       -0.033648193 -0.00094465015 0.015452937 -0.005070919
000160 11 87 aa bc 05 e2 07 bc 2d f6 a1 ba 45 0f 11 bb
       -0.020816358 -0.008293633 -0.0012356691 -0.0022134345
000170 cc cf 85 3a 2a 91 9d bc eb 09 aa 3b 97 94 cd 3c
       0.0010209023 -0.019234259 0.0051891706 0.025095267
000180 c6 3b 8a be c1 eb 6e bc 39 d3 4f bc 80 25 96 bc
       -0.2699873 -0.014582575 -0.012684637 -0.018328428
000190 d1 15 fb 3b 18 d3 da 3c 09 96 50 bc 0f 7d 1d 3c
       0.007662513 0.026711985 -0.012731084 0.009612336
0001a0 8d 96 09 3c 8f e2 72 bc 67 5f 81 bb 7f a2 06 bc
       0.0083977105 -0.014824524 -0.0039481404 -0.008217453
0001b0 64 37 5d bb 11 f9 38 3c 31 60 5d 3c 5f 58 75 bc
       -0.003375494 0.011289851 0.013511703 -0.014974683
0001c0 ca 91 cd 3c 6c f9 41 bb 36 98 e5 ba a5 9e f4 bb
       0.025093932 -0.002959813 -0.0017516676 -0.007465201
0001d0 14 24 10 ba ab 53 0e bb 5c dd 72 bc d1 c2 97 b9
       -0.000549854 -0.002171735 -0.014823284 -0.00028946114
0001e0 1f cb 0f bd a8 6d 79 3b 87 94 e2 bb 4e 75 2b 3c
       -0.03510582 0.0038059745 -0.0069146785 0.010464979
0001f0 6d 16 47 3a 3d c8 c9 b9 e2 34 c8 3b 45 6e c3 bc
       0.0007594589 -0.00038486897 0.0061098197 -0.023856292
000200 15 c8 09 3c ea e7 2b 3c 5f 10 be bb 1c 9a da bb
       0.00840952 0.010492304 -0.0058002914 -0.0066712033
000210 3a a0 07 3b 8f ee e0 3a e9 37 bb ba 75 96 30 3c
       0.0020694868 0.001716094 -0.001428363 0.010778059
000220 ca fc 49 bc f6 f2 cf b9 8a 89 50 3a 3b 18 17 bc
       -0.012328336 -0.00039663137 0.0007955065 -0.009222086
000230 3b 27 f9 bb a7 36 a8 bb 73 f8 6d 3c 3d 10 15 3c
       -0.0076035536 -0.005133468 0.014524567 0.00909811
000240 28 c9 27 3c 17 16 1d ba 35 b4 a6 39 3f 77 03 3b
       0.0102408305 -0.00059923664 0.00031796252 0.002006009
000250 0a 73 16 3b 1f f1 b0 3a ba 09 4a 3b 6e 50 78 3b
       0.0022956752 0.0013499594 0.0030828551 0.0037889737
000260 e8 11 f1 39 17 b5 eb 3a 18 d2 df 3b d3 b1 0e 3c
       0.00045980443 0.0017983046 0.006830465 0.008709389
000270 58 c7 02 bc 6d df 04 bc a0 41 24 bc 19 f9 91 bc
       -0.007982098 -0.0081099095 -0.010025412 -0.017818974
000280 c2 33 e5 bf 0f b4 5e bd 16 07 93 bc e2 9c 13 3b
       -1.790642 -0.054370936 -0.017947715 0.002252393
000290 11 fe 5e bc 70 e9 13 bc fe 99 b5 3b 05 68 08 bc
       -0.013610379 -0.009027824 0.005542039 -0.008325581
0002a0 be 94 da bb 7d c3 95 bb 6a 59 31 bb a4 30 c1 ba
       -0.0066705635 -0.004570423 -0.0027061352 -0.0014739227
0002b0 7a b3 3a bc 6a 90 c9 ba 5e 09 be bb d0 7d b8 3a
       -0.01139533 -0.0015378122 -0.0057994565 0.0014075581
0002c0 d3 a0 18 3b 29 12 10 3b 87 14 8f 3b 5b 40 43 3c
       0.0023289218 0.002198348 0.0043664607 0.011917199
0002d0 14 76 9c bb 32 43 44 bb 7c 3a a6 3a f7 c3 9d 3b
       -0.004774818 -0.0029947278 0.0012682225 0.0048146206
0002e0 7a 88 0c bc ea 8e ea ba 6e 06 00 3a 9e af da b9
       -0.00857746 -0.0017895375 0.00048837706 -0.00041711045
0002f0 2e 8e 94 3a 15 34 55 3b 16 37 dd 3a c2 a3 e8 bb
       0.0011333877 0.0032532264 0.0016877379 -0.0070995996
000300 c7 9a 9e 3b d9 bc e6 3b ed 2d ca bb 0b 66 ed 3c
       0.0048402282 0.0070415554 -0.0061700256 0.028979322
000310 9e 03 d9 3b f5 8e 4d bc f7 3e 4c bb 87 4f 0d bb
       0.0066227457 -0.012546291 -0.003116546 -0.0021562295
000320 db ae 0b 3a e3 17 d2 bc 99 ea 7c 3c bd 7e 52 bc
       0.00053284847 -0.025646156 0.015436792 -0.0128476
000330 47 34 f6 3a db 90 58 3c 03 b6 6c bb 3b 81 74 bc
       0.001878389 0.01321813 -0.003611923 -0.014923389
000340 30 f1 e1 3c 2a c8 91 3a 9a 7c 28 bc 22 87 30 bb
       0.027580827 0.0011122276 -0.010283614 -0.0026936014
000350 7e 18 29 3c 97 bd b6 3c f7 e3 e3 3c 40 1f 4e 3c
       0.010320781 0.0223072 0.027818663 0.012580693
000360 07 13 ec 3c 14 6c f1 3b 00 35 a7 3c 8d 55 ce ba
       0.028817667 0.0073676202 0.020411015 -0.0015742049
000370 c3 b9 1a bc 1d 22 b1 bb f1 26 f9 3c 6d d1 4a be
       -0.009443703 -0.005405678 0.030414077 -0.19806452
000380 0c 37 d9 3b 1c ff 0f bc 18 7e 53 3c 51 70 ca 3b
       0.0066288766 -0.00878885 0.012908481 0.00617794
000390 8b f1 77 3c 1e d9 de b9 f1 fd 24 bc e4 38 86 bc
       0.015133272 -0.00042504905 -0.01007031 -0.01638455
0003a0 5b f0 c6 39 9b 0f 80 bc 8b 46 c1 3b 94 ad c8 3b
       0.00037944582 -0.015632441 0.005898302 0.0061242077
0003b0 70 82 2d 3c 09 04 24 ba e7 6f c2 3c 79 e4 39 bc
       0.010590181 -0.0006256705 0.023735 -0.011345976
0003c0 76 d4 24 bc 2e 17 1f bd 9f 95 e2 3b bd 9a 58 bb
       -0.01006042 -0.038840465 0.006914809 -0.0033051216
0003d0 a7 2a 6f 3c 6d b6 47 3d 67 0e 07 3c e3 05 3b 3b
       0.014597571 0.04875796 0.00824318 0.0028537444
0003e0 61 28 9c bb ee 82 16 bb 1a 10 cd 3b d1 b1 ec 3c
       -0.0047655557 -0.0022966224 0.006258023 0.028893383
0003f0 b6 bd 59 3d 5b 44 78 bc be b8 70 bc 1b 12 6d 3b
       0.053159438 -0.015153016 -0.0146924835 0.0036174122

bias f4 [16]
000000 2e 3a 00 3f da c7 61 be 42 ce 9c bf 02 76 56 bf
       0.50088775 -0.22048894 -1.2250445 -0.83773816
000010 df bc 12 bf 72 c0 22 bf 1f 29 24 bf f9 9b 48 3f
       -0.57319444 -0.635749 -0.64125246 0.78362995
000020 c8 03 16 3f 12 16 13 3f df e6 01 bf 52 8e 0a bf
       0.5859952 0.5745555 -0.50742906 -0.54123414
000030 0c 0c d0 be 8e 9a 32 3f a2 e6 9c 3e f6 f0 29 3f
       -0.4063419 0.6976708 0.3064471 0.663833

weight f4 [8, 16]
000000 11 7d 82 3d 12 6f 36 be bf 46 99 bc bc 02 e1 3c
       0.06371511 -0.17815807 -0.018710492 0.027467124
000010 13 37 d6 bd a8 8b 27 be c6 d1 ca 3d 28 99 1e c0
       -0.10459723 -0.16361868 0.09903292 -2.478098
000020 d5 eb b0 be 7b 9b 40 bd 95 2c c1 bd 22 6b 9b 3b
       -0.34554926 -0.047023278 -0.094323315 0.004742996
000030 8c f8 b8 be 1e f4 13 bf 5f ee f5 3d 11 1c f1 be
       -0.36127126 -0.5779437 0.12008356 -0.47091725
000040 09 df 26 bf d9 0d 00 be 21 f7 53 3f 37 9b 7f bd
       -0.65184075 -0.12505282 0.82798964 -0.062403884
000050 d5 1a 1f bd 4e c2 91 3d 73 f4 73 be bc 6b df 3d
       -0.03884395 0.07117139 -0.23823719 0.109092206
000060 9e d5 8b 3d 6a ec b5 3d fe 80 ff bc 76 78 11 bc
       0.068278536 0.08882983 -0.031189438 -0.008878818
000070 55 f1 b6 3d 30 db 6f 3d ce d7 0d bf 50 b5 7f 3d
       0.08932749 0.058558643 -0.55407417 0.062428772
000080 bd e0 69 be 25 04 ce 3d 45 a1 a6 3d bf f2 eb 3d
       -0.22839637 0.10059384 0.081362285 0.115209095
000090 a8 da 16 bd 26 bf 9b 3d 92 6f ca 3d b4 8c c4 3c
       -0.03682962 0.07604818 0.098845616 0.023992874
0000a0 dc b2 60 3e be 8e c7 3c 15 aa 0e 3e d5 4b 2b bd
       0.2194323 0.024360057 0.13932069 -0.041820366
0000b0 70 a6 07 3d 63 e6 03 3e 74 84 3a 3d a3 45 98 bc
       0.03311771 0.12880854 0.045536473 -0.018587893
0000c0 14 98 b1 be 45 7a 21 be ca 27 93 be 3f 3b 64 3b
       -0.3468634 -0.15769298 -0.28741294 0.0034825352
0000d0 e8 f4 e7 bc 76 9f a3 3d d0 a8 af 3d fa e7 84 3d
       -0.028315023 0.07989399 0.0857712 0.064895585
0000e0 46 d2 dd bd 88 2a 4f 3d f7 5e 6a be a8 e6 a3 bc
       -0.10831122 0.05057767 -0.22887789 -0.020007446
0000f0 a6 ce fe bd 40 7f 73 bd d0 d2 a1 be 14 2d 16 3b
       -0.12441759 -0.059447527 -0.3160615 0.0022915052
000100 a9 7a 6f be c0 db 60 3e 6a a4 96 3e e5 ee 16 3c
       -0.23386635 0.21958828 0.29422313 0.00921223
000110 16 cb 7e bd fd e3 12 3e d8 94 25 3b e8 9a 68 be
       -0.062205397 0.14344783 0.002526572 -0.22715342
000120 14 2e f0 bd 02 30 a9 3d 1a c1 2a bd e0 67 de 3d
       -0.11727539 0.0826111 -0.041688062 0.10859656
000130 2a 21 67 3d 47 12 ee bd e1 52 a6 bb 45 22 a9 bb
       0.056428112 -0.1162458 -0.005075798 -0.005161556
000140 22 3e 61 3d 2a 61 26 3e f6 cf 77 bf 9a 23 83 3d
       0.054990895 0.16248003 -0.968017 0.06403275
000150 bf 67 ab bd 72 42 61 3c 34 1b 91 3d 1c c6 44 3e
       -0.08369397 0.013748752 0.07085267 0.19216198
000160 59 bd 17 3d 30 d6 0f 3e b2 37 33 3e bc ff 7e 3d
       0.03704581 0.1404655 0.17501715 0.062255606
000170 49 3e 2b bd ba 49 00 3e 9b 0c 79 3d b2 eb 40 3e
       -0.041807447 0.12528124 0.060803037 0.1883991
000180 14 4a 46 3d a4 d9 2f be 22 cd 87 be 53 2a 0e be
       0.04841049 -0.17172867 -0.2652369 -0.13883333
000190 22 85 dc 3d 84 01 af 3e 1c 16 8f be f6 b2 81 bd
       0.107675806 0.34180844 -0.27946556 -0.06332962
0001a0 d7 f3 c1 3c d5 79 bb bd 5c 8c 0f 3e 1b 0a 1b bb
       0.023675842 -0.09154097 0.14018387 -0.0023657146
0001b0 c0 66 35 3e 1f 0c 0e bd 25 16 70 be a0 7c ab bd
       0.17714977 -0.03467953 -0.23445947 -0.0837338
0001c0 7c 77 cd be 44 45 a3 3e 44 63 fc 3e e0 9a 38 3e
       -0.40130222 0.31888783 0.49294484 0.1802783
0001d0 9b a4 1e 3e ac 29 ef 3c 7a ff 30 3e 10 8b 14 3e
       0.1549248 0.029194675 0.17284957 0.14506173
0001e0 87 81 a0 bd 6f 6d 0a be 16 31 8b 3e 4d 4e 20 bd
       -0.078372054 -0.13518308 0.27185887 -0.039137173
0001f0 36 88 81 be 88 bc e3 3d 8c ec d5 be c3 b2 c5 3d
       -0.25299233 0.11119944 -0.41782033 0.09653237

bias f4 [8]
000000 db 5e cd 3e 2b 65 3f 3f 76 8d ee 3e e7 d8 8d 3f
       0.4011143 0.74763745 0.465923 1.1081818
000010 e8 e2 10 3f 72 b2 fb 3e 51 a4 46 3f f5 f0 20 3f
       0.5659623 0.4915958 0.77594477 0.6286767

weight f4 [4, 8]
000000 60 e3 b9 3e cf 08 0b bf 56 24 c7 3e 11 f5 a0 3e
       0.36306286 -0.54310316 0.3889491 0.3143697
000010 60 89 28 be 05 a3 7a 3e bb 92 b8 3e e9 0f 15 be
       -0.16458654 0.2447625 0.36049446 -0.1455685
000020 12 3d fe be 2f cb dc 3d 31 03 d8 3e 3c fa 0a 3f
       -0.49655968 0.10780942 0.42189935 0.5428808
000030 dc 2c 5c 3e e4 11 30 bd 51 ae ad 3e 67 e7 a8 3e
       0.21501487 -0.04298581 0.33922055 0.32989046
000040 fd b1 41 3f cc 06 be be fd 3e c8 3d 72 ee f0 3e
       0.75662214 -0.3711456 0.09777639 0.4705692
000050 87 ce bb 3e ff 8b 01 3f 55 7c fe 3e 03 a4 10 bd
       0.36681005 0.5060424 0.49704233 -0.035312664
000060 9f 28 fd bf 3b ed b8 3e 2e bc af 3e da 32 15 3f
       -1.9778022 0.36118492 0.34323257 0.5828072
000070 9f 64 01 3f fc 92 a9 3e b2 97 1c 3f 57 43 3a bc
       0.5054416 0.33119953 0.6116897 -0.011368594

bias f4 [4]
000000 f5 f8 e5 3e 61 de 1f 3e 95 56 ce bd ff c4 b1 3e
       0.44916502 0.15612175 -0.10075108 0.3472061

weight f4 [1, 4]
000000 d4 68 0a 3f 39 23 de be d0 89 f5 3e 1a fa b8 be
       0.54066205 -0.43386248 0.47956705 -0.36128312
