Equalizer5LayerReLU.pth (torch, 16800 bytes, 9 tensors)

weight f4 [32, 64]
0	0xbaf144c6	-0.0018407337
1	0x3cc1cd49	0.023657458
2	0x3d370b03	0.044688236
3	0xbc40f29b	-0.011776592
4	0x3cf9c4be	0.030489322
5	0xbc143581	-0.009045959
6	0xb994fc98	-0.00028416957
7	0xbcc51426	-0.02405746
8	0xbd17c6d8	-0.037054867
9	0x3cf98f9c	0.030463986
10	0xbb786890	-0.003790412
11	0xbcc1e59d	-0.023669058
12	0xbd06dff5	-0.032928426
13	0x3c3a7c86	0.011382228
14	0xbc8ba563	-0.017046636
15	0xbce3aa74	-0.02779124
16	0x3c64f719	0.013974928
17	0x3ceb13fb	0.02869605
18	0xbc0aecb9	-0.008479291
19	0xbbe1c17b	-0.0068895197
20	0xbce32f00	-0.027732372
21	0x3d2fbbf9	0.042903874
22	0xbc386916	-0.011255523
23	0x3a7e7333	0.0009706497
24	0xbc31d61e	-0.010854272
25	0x3c62773b	0.013822372
26	0x3cb58e31	0.022162529
27	0xbbd2d6fd	-0.00643432
28	0xbccabe98	-0.024749085
29	0x3bacfffd	0.0052795396
30	0x3c2f1377	0.010685793
31	0x3e06caf5	0.1316336
32	0xbf37fed7	-0.7187323
33	0x3d82db82	0.06389524
34	0x3ce1fef5	0.027587393
35	0xbc62faba	-0.013853723
36	0xbc95bed6	-0.018279474
37	0xbc7071b9	-0.014675551
38	0xbcb209dd	-0.021733219
39	0x3d193e30	0.037412822
40	0x3b043a08	0.002017619
41	0xbc8414b1	-0.016123148
42	0x3cb3f972	0.02196953
43	0xbce48318	-0.027894542
44	0xbc7d5aa5	-0.015463506
45	0x3d29078b	0.04126696
46	0xbca5bc4c	-0.020231389
47	0xbc0835df	-0.008313625
48	0x3cd2f921	0.02575356
49	0x3b9d0ed4	0.0047930274
50	0x3cab7e3c	0.020934217
51	0xbcb1c86e	-0.021702018
52	0xbc13b827	-0.009016073
53	0xbca1a5e1	-0.019732418
54	0xbc0d726c	-0.008633237
55	0xbb2ccbf9	-0.0026366694
56	0xbd0b1fd9	-0.03396592
57	0x3cc4dc39	0.024030792
58	0x3c9c8d27	0.019110275
59	0x3b52deda	0.0032176287
60	0xbcb8bbb0	-0.022550434
61	0xbc3d51b0	-0.01155512
62	0x3aaf5cb9	0.0013379074
63	0x3c000203	0.00781298
64	0xbc1c6501	-0.009545566
65	0xbcb1bffe	-0.021697994
66	0x3c108fd5	0.008823355
67	0xbab6446b	-0.0013905888
68	0x3b8ba236	0.0042612804
69	0x3c18447c	0.009293672
70	0xbbb9cc05	-0.005670073
71	0x3cd097e6	0.025463056
72	0xbb254343	-0.0025217093
73	0x3bbc735d	0.005751057
74	0xbc892f61	-0.016746225
75	0xbc165fd1	-0.009178118
76	0x3c77ce0c	0.015124809
77	0xbbc6d7e7	-0.006068218
78	0xbc4ab325	-0.012371813
79	0x3c8314b6	0.016001087
80	0x3c0a87d5	0.008455236
81	0xbc89ce09	-0.016821878
82	0x3c62749a	0.013821745
83	0x3b16a535	0.0022986655
84	0xbc09d388	-0.008412249
85	0xbca5982a	-0.020214159
86	0x3a2f0e07	0.00066778105
87	0xbbdd2060	-0.006748244
88	0xbaca6dd1	-0.0015444105
89	0x3bbd2d90	0.0057732537
90	0xbbc9aa3b	-0.0061543263
91	0x3b2a5038	0.0025987756
92	0x3cb22f59	0.021751093
93	0x3a34f046	0.00069022586
94	0xbd05c5b4	-0.032659248
95	0xbd81fbf6	-0.06346886
96	0x3f8c46ba	1.0959084
97	0x3e20485e	0.15652606
98	0xbd1826c4	-0.037146345
99	0xbc9ac9e6	-0.0188951
100	0x3bea2cc6	0.0071464507
101	0x3c86173c	0.0163685
102	0x3b997ea2	0.0046842853
103	0xbcb6b060	-0.022300899
104	0xbaa239bb	-0.0012376824
105	0x3d0016c3	0.031271707
106	0xbc9b0532	-0.018923376
107	0xba3d6d74	-0.00072260876
108	0x3a2d35b8	0.0006607431
109	0x3c96b3e4	0.018396325
110	0x3c963208	0.018334404
111	0xbcb77769	-0.022395806
112	0xbc1d1450	-0.009587362
113	0x3be51e55	0.0069921413
114	0xbc2e49a0	-0.010637671
115	0xbd2c21fd	-0.0420246
116	0x3ba1f1f0	0.0049421713
117	0xbb60083d	-0.0034184598
118	0x3c1ca357	0.009560428
119	0xba2c03b0	-0.0006561829
120	0x3c03e544	0.008050267
121	0x3aa8ae47	0.0012869322
122	0xbcbb6fda	-0.022880483
123	0xbc2ac435	-0.010422756
124	0x3c864fb8	0.016395435
125	0xbc04c3eb	-0.008103351
126	0xbc86d781	-0.016460182
127	0xbb24a3cc	-0.0025122045
128	0x3b9e9e11	0.0048406203
129	0x3b25d296	0.002530252
130	0x3bb5d75f	0.005549356
131	0xbb9a9311	-0.0047172387
132	0x3b913ad3	0.004432061
133	0xbb3bc2c8	-0.0028650034
134	0xbb3070ae	-0.002692263
135	0xbb8a71e5	-0.004225003
136	0xbbe99241	-0.0071280305
137	0x3b3bd4fe	0.0028660889
138	0xbac6bbfe	-0.0015162227
139	0xbb9f4535	-0.004860545
140	0xbc1012fd	-0.00879359
141	0x3bf51543	0.0074793412
142	0x3a662c3d	0.0008780396
143	0xbb6eab1d	-0.003641791
144	0xba745af8	-0.0009321417
145	0xba71b74b	-0.0009220733
146	0xbb83522e	-0.0040075993
147	0x3ba42227	0.005008954
148	0xba6d2dde	-0.0009047667
149	0x3b8cde42	0.004298956
150	0xba23cab1	-0.000624816
151	0xbb859623	-0.0040767356
152	0x3aac0e44	0.001312681
153	0x3aca7ef5	0.0015449213
154	0x3baf5a60	0.0053513497
155	0xbbd3ad83	-0.006459893
156	0xbbd1eb57	-0.0064062285
157	0x3ac936e0	0.0015351437
158	0xbbd8aa98	-0.0066121332
159	0xbd437d81	-0.04772711
160	0x3f153792	0.5828792
161	0xbcf33e84	-0.029692896
162	0xbbe51e98	-0.0069921724
163	0xbb8dce91	-0.004327603
164	0xbaff98a4	-0.0019500447
165	0xbb53fd29	-0.003234694
166	0xbb2c649f	-0.0026305092
167	0x3bb4ecbf	0.0055213864
168	0x3b22b2db	0.0024825844
169	0xbad270a9	-0.0016055304
170	0x3bb063f5	0.0053830096
171	0x3ac7be9d	0.0015239302
172	0xbad06d86	-0.0015901781
173	0x3aafba8f	0.0013407039
174	0xbacf7d46	-0.0015830181
175	0x3b8f8f38	0.0043810867
176	0x3a1a23af	0.0005879951
177	0x3a5d3552	0.00084384263
178	0x3b0105e5	0.0019687351
179	0xbb333ad0	-0.0027348287
180	0x3b8969ef	0.0041935365
181	0xbc06ec5f	-0.008235066
182	0xb9c16376	-0.00036885933
183	0xbaf64ef5	-0.0018791842
184	0xbb92aae5	-0.0044759386
185	0x3ae39bea	0.0017365192
186	0x3b78e870	0.003798034
187	0xba9cef09	-0.0011973093
188	0x3b5674c0	0.0032723397
189	0xbae54e30	-0.0017494615
190	0x3a84ed71	0.0010141564
191	0xbbe80261	-0.0070803617
192	0xbc6f65d4	-0.01461168
193	0x3cb1bccf	0.021696476
194	0x3cb92081	0.022598507
195	0xbcbb9a65	-0.02290077
196	0x3cd91c81	0.02650285
197	0xba324e5c	-0.00068018376
198	0xbc4d8c69	-0.012545683
199	0xbcdd96a1	-0.027049365
200	0xbd0c722c	-0.03428857
201	0xbc2404a1	-0.010010869
202	0x3c504cbf	0.01271361
203	0xbd10b6f5	-0.03533073
204	0xbce22339	-0.027604686
205	0x3d0d0f79	0.034438584
206	0xbd60e1da	-0.05490289
207	0xbc54e4be	-0.0129939895
208	0x3c898556	0.016787212
209	0x3d130db5	0.035901744
210	0xbbe5ad8d	-0.0070092143
211	0xbd0064fb	-0.031346302
212	0xbc3a68d1	-0.011377529
213	0x3d6a494c	0.057198808
214	0xbcfa196e	-0.030529704
215	0xbb0b2934	-0.0021234276
216	0xbd087c0d	-0.03332143
217	0x3cc9848f	0.024599342
218	0x3c9b6d33	0.018972969
219	0xbc89f9f0	-0.016842812
220	0x3bf7daae	0.0075639104
221	0xbb954e0e	-0.004556424
222	0x3cc4da2c	0.024029814
223	0x3e1273e1	0.14302017
224	0xbf10b86e	-0.5653142
225	0x3d8aae7a	0.0677156
226	0x3cca4e3b	0.024695506
227	0xba84e37c	-0.0010138596
228	0x3c300aeb	0.010744791
229	0x3a2dff54	0.0006637473
230	0xbd1daf53	-0.03849728
231	0x3cb7345e	0.022363838
232	0x3a00359f	0.00048908027
233	0xbcbc7749	-0.023006098
234	0xbc0cc2db	-0.008591379
235	0xbd04ec9e	-0.03245222
236	0xbc8f6048	-0.017501965
237	0x3cbf22f3	0.023332095
238	0xbc947d77	-0.018126233
239	0xbcc8c272	-0.024506781
240	0x3cb4a9f5	0.022053698
241	0x3c8dafd0	0.017295748
242	0x3c740024	0.014892612
243	0xbc987061	-0.018608274
244	0x3cd63081	0.026146175
245	0xbc1d894a	-0.009615252
246	0xbcaa1564	-0.020762153
247	0x3c3d3e9e	0.011550574
248	0xbcca48fb	-0.024693003
249	0x3c9ed07c	0.019386522
250	0x3cf7e40d	0.03026011
251	0x3cc1d4be	0.023661014
252	0xb8050ad3	-3.1719752e-05
253	0xbc24d2fd	-0.010060069
254	0x3c84ad53	0.016195929
255	0x3c1a223a	0.009407574

bias f4 [32]
0	0x3e350e8e	0.17681333
1	0xbe066e30	-0.1312797
2	0x3f58ad98	0.84639883
3	0x3defcd78	0.11709112
4	0xbdc375ad	-0.09543929
5	0xbe4cee63	-0.20012812
6	0x3e888cc9	0.2666991
7	0x3e621d71	0.22081544
8	0x3f03e382	0.51519024
9	0xbe9ceadb	-0.3064793
10	0x3f1f94b4	0.6233628
11	0x3dc94b54	0.09828821
12	0x3ea6c657	0.32573196
13	0xbe7db95e	-0.24777743
14	0xbe32daa7	-0.17466222
15	0x3f04154e	0.5159501
16	0x3f1ac1d1	0.6045199
17	0xbe9ce827	-0.30645868
18	0xbf00e80b	-0.5035407
19	0x3f1a62e9	0.60307175
20	0xbd3f79b0	-0.04674691
21	0x3ed2c098	0.41162562
22	0x3d79ace2	0.06095589
23	0x3f2faef8	0.68626356
24	0x3ec67dd4	0.38767874
25	0xbe219c56	-0.15782294
26	0xbe355aa6	-0.17710361
27	0x3f5a3d8f	0.8525018
28	0xbec7b914	-0.3900839
29	0x3f46d507	0.77668804
30	0x3f1af019	0.6052261
31	0xbd260022	-0.04052747

weight f4 [16, 32]
0	0xbe09bd48	-0.13451111
1	0x3dacd76a	0.084395245
2	0x3f071775	0.5277017
3	0xbdb3bff0	-0.087768435
4	0x3d5257de	0.051353328
5	0x3dec7ef2	0.115476504
6	0x3eab37ee	0.33441108
7	0x3cdccb00	0.026952267
8	0xbe0b0592	-0.13576344
9	0xbded9888	-0.11601359
10	0xbd32f098	-0.04368648
11	0xbcbacbd3	-0.02280227
12	0x3e9255c9	0.28581074
13	0x3c443392	0.011975186
14	0xbe141a7d	-0.1446323
15	0xbde00220	-0.10937905
16	0xbdf11b0f	-0.11772739
17	0xbdb6f786	-0.0893393
18	0xbc933bdd	-0.017972881
19	0x39ec86d2	0.00045113877
20	0xbd82bea3	-0.06384017
21	0x3e72cce1	0.23710968
22	0x3e369b10	0.17832589
23	0x3ead5f48	0.33861756
24	0x3e90c474	0.28274882
25	0x38cec981	9.8603785e-05
26	0x3def82a8	0.116948426
27	0x3ee47f53	0.4462839
28	0x3d84e41f	0.06488823
29	0x3efb93c3	0.4913617
30	0x3d25c417	0.04047021
31	0x3dba13e2	0.090858236
32	0x3be1deea	0.0068930285
33	0x3e33e6e7	0.17568551
34	0x3da7d5fd	0.08195112
35	0xbd0457fb	-0.032310467
36	0x3d812b85	0.06307129
37	0x3dc9bbf3	0.098503016
38	0x3e2e1950	0.17001843
39	0x3da9f078	0.08297819
40	0x3d00ef71	0.03147835
41	0x3dd213c3	0.102576755
42	0xbdfb850d	-0.12281237
43	0x3e117d98	0.14208066
44	0x3e193c5e	0.14964435
45	0x3e6c896e	0.230993
46	0x3e690819	0.22756995
47	0x3daab529	0.08335335
48	0x3da89683	0.08231833
49	0x3e0def19	0.1386074
50	0x3de7acdb	0.113122664
51	0xbdee999f	-0.11650395
52	0x3e0d9bd9	0.13828982
53	0x3e8b2ed6	0.2718417
54	0xbbb206c4	-0.0054329354
55	0xbdeedf36	-0.11663668
56	0x3ebf655f	0.37382028
57	0x3d5bde01	0.053678516
58	0x3dfb409a	0.12268181
59	0x3d97fcc1	0.07421256
60	0x3d583801	0.052787784
61	0xba81f4d6	-0.0009914886
62	0x3e188865	0.1489578
63	0xbc2b947d	-0.010472414
64	0xbdc9a078	-0.0984506
65	0x3d5244d1	0.05133516
66	0x3e63657f	0.22206686
67	0xbe17c05c	-0.14819473
68	0x3d821a5d	0.06352685
69	0xbdb8382c	-0.08995089
70	0xbdbdbcc3	-0.09264519
71	0xbcde57fa	-0.02714156
72	0x3d611239	0.05494902
73	0x3ddceb60	0.10787082
74	0x3e590730	0.21194148
75	0xbc6256dc	-0.013814654
76	0xbd53ce4d	-0.051710416
77	0xbdf37eae	-0.118893966
78	0x3dc7e646	0.09760718
79	0x3ddebd63	0.108759664
80	0x3dbeef46	0.093229815
81	0xbd9f10f4	-0.077669054
82	0xbe075bd2	-0.1321862
83	0x3c32fe6c	0.010924917
84	0xbdeddd9c	-0.11614534
85	0xbe44aab6	-0.19205746
86	0x3dcac8b5	0.09901563
87	0x3da8b624	0.082378656
88	0xbeae2564	-0.34012902
89	0xbd4daf53	-0.05021603
90	0xbcdaeab6	-0.026723247
91	0x3d98d35e	0.0746219
92	0x3c99a9a5	0.01875765
93	0x3e8711a4	0.26380646
94	0x3c6ee4a9	0.014580884
95	0xbdd482e4	-0.10376528
96	0xbd30803c	-0.043091044
97	0xbda6882f	-0.08131444
98	0xbbbe1e2e	-0.0058019375
99	0x3e6450c0	0.22296429
100	0xbcc018cc	-0.023449324
101	0xbd146f07	-0.036238696
102	0xbdbf7b99	-0.09349746
103	0x3c6c72fa	0.014431709
104	0x3e4bdcfd	0.19908519
105	0xbd887a50	-0.06663954
106	0x3ddb1dc6	0.10699038
107	0xbd64cd95	-0.05586012
108	0xbd18c9cb	-0.03730182
109	0xbd1629f0	-0.03666109
110	0x3e31a368	0.17347491
111	0x3d370246	0.044679902
112	0x3e35a321	0.1773801
113	0xbe3b2a2c	-0.18277806
114	0x3bc70549	0.006073628
115	0x3c527ff4	0.012847889
116	0xbc810528	-0.015749529
117	0xbdf9ca27	-0.121967606
118	0xbca691af	-0.02033314
119	0xbd801104	-0.062532455
120	0xbd516635	-0.051122863
121	0xbe015a93	-0.12632208
122	0xbc8b83fc	-0.017030708
123	0x3e3f43fd	0.18678279
124	0x3ded8391	0.1159736
125	0x3de7dbee	0.11321245
126	0x3daa1522	0.08304812
127	0x3d6b354d	0.05742388
128	0xbc1ef8b2	-0.009702848
129	0x3e92e0db	0.28687176
130	0x3df7649c	0.120797366
131	0xbdae9a89	-0.08525569
132	0xbd8f0ff2	-0.06985463
133	0xbe14c6b3	-0.14528923
134	0x3efcade4	0.49351418
135	0xbdd3e5f0	-0.103465915
136	0x3a4f8666	0.000791645
137	0x3e9b49c1	0.30329707
138	0x3e0acb61	0.13554145
139	0xbdceb4ad	-0.10093055
140	0x3ece0e59	0.4024532
141	0x3ebf0851	0.37311032
142	0xbe6879eb	-0.22702758
143	0xbd1bb75b	-0.03801666
144	0x3da03a15	0.07823578
145	0x3ea58736	0.3232972
146	0xbde2ec5e	-0.1108024
147	0x3d8359a5	0.06413583
148	0xbd190ae5	-0.037363905
149	0x3ec3ea2a	0.3826459
150	0xbdf19278	-0.11795515
151	0xbaf9c094	-0.0019054585
152	0x3eeca511	0.46219686
153	0x3da5e122	0.08099581
154	0xbd8b1cfe	-0.06792639
155	0xbe0f6985	-0.14005096
156	0xbdec2031	-0.115295775
157	0x3d5f51f5	0.05452152
158	0x3c4ceead	0.012508077
159	0xbd6ced00	-0.05784321
160	0xbe625f0e	-0.22106573
161	0x3d18a7e9	0.037269507
162	0x3e184a73	0.1487215
163	0xbdea0a25	-0.11427716
164	0xbd21f6f6	-0.03954216
165	0xbdb41790	-0.08793557
166	0xbe2c9384	-0.16853148
167	0xbb8a257f	-0.0042158957
168	0xbd7a0216	-0.061037146
169	0xbe06fca5	-0.13182314
170	0x3e1bcc75	0.15214713
171	0xbd307dda	-0.04308877
172	0xbdfd2ee1	-0.12362457
173	0xbd9d0c8c	-0.07668409
174	0xbdd93fa0	-0.10607839
175	0xbc1d29a7	-0.00959245
176	0x3d6e88d1	0.058235947
177	0xbd7bb83a	-0.06145499
178	0x3d8d07b1	0.06886233
179	0x3d93fbb3	0.07225742
180	0xbd928f6e	-0.07156263
181	0xbdaaaa63	-0.0833328
182	0x3c5eb6c3	0.0135933785
183	0x3e819b90	0.25313997
184	0xbea01511	-0.31266072
185	0x3db2a4e3	0.08722856
186	0x3da761d2	0.081729546
187	0x3d8e9a88	0.06963068
188	0x3d6739f1	0.05645174
189	0x3d52d1cd	0.051469613
190	0xbd80f4d1	-0.06296695
191	0x3cddaecc	0.027060889
192	0xbc77e37d	-0.015129921
193	0xbb134115	-0.0022469212
194	0x3e87ffba	0.2656229
195	0x3d5a57d5	0.05330642
196	0xbe3722cc	-0.17884368
197	0xbc267f8c	-0.0101622455
198	0xbe2a1eab	-0.16613261
199	0xbd98412f	-0.07434308
200	0x3d8cbf54	0.068724304
201	0xbd7a77f8	-0.061149567
202	0xbdcdf5aa	-0.10056622
203	0x3dab36ff	0.08360099
204	0xbe53cb18	-0.20682943
205	0x3d4e2841	0.050331358
206	0xbdd65062	-0.104645506
207	0x3ae29476	0.0017286676
208	0x3d94bc45	0.07262472
209	0x3becd131	0.007227086
210	0xbde60508	-0.112314284
211	0x3cb825df	0.022478996
212	0x3dc1fc34	0.09471932
213	0xbe503323	-0.20332007
214	0xbd26c181	-0.040711883
215	0xbbc0820a	-0.005874877
216	0xbe03d111	-0.12872721
217	0x3e10122f	0.14069436
218	0xbd3481c0	-0.04406905
219	0x3e30b94e	0.17258188
220	0xbbac4b75	-0.0052580186
221	0x3d8edbdc	0.069755286
222	0x3dca9290	0.09891236
223	0x3d80888f	0.062760465
224	0xbddaea0f	-0.106891744
225	0xbe09828d	-0.13428707
226	0x3d152673	0.03641362
227	0xbda44c32	-0.080223456
228	0xbe319b02	-0.17344287
229	0xbe462a39	-0.19352044
230	0xbbb3a477	-0.005482252
231	0x3db5c06d	0.08874593
232	0xbdebe0d9	-0.11517496
233	0x3d48ff12	0.04907138
234	0x3cced7f2	0.025249455
235	0x3d897a17	0.0671274
236	0xbe434da3	-0.19072585
237	0xbde85428	-0.113441765
238	0xbe37c3f5	-0.17945845
239	0xbc9d1553	-0.019175207
240	0x3de80c32	0.11330451
241	0x3d77a474	0.06045957
242	0x3d6b0b85	0.057384033
243	0x3df90d56	0.12160747
244	0xbdf90343	-0.12158825
245	0x3d83c6a6	0.064343736
246	0x3d707d81	0.05871344
247	0xbdfc7dcd	-0.12328682
248	0xbe145942	-0.14487174
249	0x3c72ead2	0.014826493
250	0xbe42f54d	-0.19038887
251	0xbd9cc0fd	-0.07653997
252	0x3d476966	0.0486845
253	0x3de39f67	0.11114388
254	0xbe3e1809	-0.18563856
255	0xbe3366da	-0.17519704

bias f4 [16]
0	0x3db2601d	0.087097384
1	0xbe169d86	-0.14708528
2	0x3e774331	0.24146725
3	0x3ee5322f	0.4476485
4	0x3ebbe472	0.36697727
5	0x3ec89831	0.39178613
6	0x3e4cd1af	0.20001863
7	0xbe2dfbaf	-0.16990541
8	0xbcf66b08	-0.030080333
9	0x3eb07b3e	0.34469026
10	0x3ee85c24	0.45382798
11	0x3da8cf14	0.08242622
12	0x3f025c20	0.5092182
13	0x3f0fa98e	0.56118095
14	0x3d917e9b	0.07104226
15	0xbe8bfc7e	-0.27341074

weight f4 [8, 16]
0	0xbe1a405e	-0.15063617
1	0xbdbde148	-0.092714846
2	0x3e3ebc30	0.18626475
3	0x3e8ba918	0.27277446
4	0x3e276a4f	0.16349147
5	0xbbc6003c	-0.0060425084
6	0x3d24d80c	0.0402451
7	0xbe31deb2	-0.17370108
8	0x3d8108fc	0.06300542
9	0x3e330a54	0.17484409
10	0x3e4a27e3	0.19741778
11	0x3d931fc3	0.071837924
12	0x3e95ef8e	0.29284328
13	0x3e06ded1	0.13170935
14	0xbc2ec163	-0.010666224
15	0xbf20bbdb	-0.62786645
16	0xc004e63b	-2.0765522
17	0xbe3fe2df	-0.18738888
18	0x3de39625	0.11112622
19	0x3ec69d8b	0.3879207
20	0x3ca986df	0.020694194
21	0x3e0e1419	0.13874854
22	0x3cc369c6	0.023854148
23	0xbe438970	-0.19095397
24	0xbe2a7e38	-0.16649711
25	0x3eba894f	0.36432883
26	0x3da8a9eb	0.08235534
27	0xbfe5a490	-1.7940845
28	0x3eaf4f45	0.34240165
29	0xc000fcaa	-2.0154214
30	0xc008adcc	-2.1356077
31	0x3dfc2e3a	0.123135045
32	0xbe8524dd	-0.26004687
33	0x3e0fb983	0.14035611
34	0xbe0247fc	-0.12722772
35	0xbe430bb7	-0.19047438
36	0x3e4118aa	0.18857065
37	0xbe56b16c	-0.20966119
38	0xbcfbfd34	-0.030760385
39	0x3cdeb3a0	0.027185261
40	0xbe743a1d	-0.23850293
41	0xbe1fd07e	-0.15606877
42	0xbddfab98	-0.10921401
43	0x3e533fad	0.20629759
44	0xbe556694	-0.20839912
45	0xbd9c7c18	-0.076408565
46	0xbd6b0c10	-0.05738455
47	0xbe861c73	-0.2619358
48	0xbb8c229a	-0.0042765858
49	0x3e15b4ea	0.14619794
50	0xbf0929e0	-0.5357952
51	0xbf20449c	-0.6260469
52	0xbd1d58fa	-0.038414933
53	0xbf160adb	-0.58610314
54	0xbf1479fa	-0.5799862
55	0xbc9e5bd3	-0.019330895
56	0xbd949f43	-0.07256939
57	0xbf74bd5b	-0.95601434
58	0xbe4b7805	-0.19870003
59	0xbd9862f2	-0.07440747
60	0xbf3c130b	-0.7346656
61	0x3e11bcb7	0.14232145
62	0x3e155364	0.14582592
63	0x3f65b7c4	0.8973353
64	0x3ea114df	0.31461236
65	0x3e630f4c	0.22173804
66	0xbf5e766c	-0.8689945
67	0xbed619c6	-0.4181654
68	0xbcd5eab0	-0.026112884
69	0xbf5e25e6	-0.8677658
70	0xbee2d726	-0.4430477
71	0xbd37c146	-0.044862054
72	0xbdf19e29	-0.11797745
73	0xbf9a4f66	-1.205548
74	0xbe988b13	-0.29793605
75	0x3ce345b7	0.027743204
76	0xbf484087	-0.7822346
77	0xbd9cc594	-0.076548725
78	0x3d9dfe1c	0.07714483
79	0x3f2e5994	0.68105435
80	0x3d84d86e	0.06486593
81	0x3e64ac1f	0.22331284
82	0xbe2ef541	-0.17085744
83	0x3d8f8cd5	0.070092835
84	0x3eb72a1e	0.3577432
85	0xbe3742e3	-0.17896609
86	0xbe355c88	-0.17711079
87	0xbe2b2fcb	-0.1671745
88	0x3e363d02	0.1779671
89	0xbda37ee9	-0.079831906
90	0x3e169726	0.14706096
91	0x3e800b50	0.2500863
92	0xbdfb7065	-0.12277297
93	0x3ca70b02	0.020390991
94	0x3e4fb5ff	0.2028427
95	0x3eab077c	0.33404148
96	0xbc23c20a	-0.009994993
97	0xbb9fbfe5	-0.0048751705
98	0xbc95d321	-0.01828915
99	0x3e88f935	0.2675263
100	0x3cdffdb3	0.027342653
101	0xbbc9a04e	-0.006153143
102	0x3e7c092d	0.24612875
103	0xbd35f947	-0.044427183
104	0x3c81eec4	0.015860923
105	0x3dadcd60	0.08486438
106	0x3e6596ef	0.22420858
107	0x3d4b1f77	0.049590554
108	0x3e83a439	0.2571123
109	0x3e7a4f33	0.24444275
110	0x3e31280e	0.17300436
111	0xbf170ef2	-0.5900718
112	0x3e2ea856	0.17056403
113	0x3e38ff81	0.18066217
114	0x3e39e058	0.18151987
115	0x3d1007e3	0.03516377
116	0x3e35ffae	0.17773315
117	0x3d9412dd	0.072301604
118	0xbc80eec6	-0.015738856
119	0xbd98286a	-0.07429583
120	0x3e202a09	0.15641035
121	0x3e6220fd	0.22082897
122	0x3bbeb1ae	0.005819521
123	0xbdc8823c	-0.09790465
124	0x3dce8251	0.1008345
125	0xbd294984	-0.041329876
126	0xbe121a20	-0.14267778
127	0xbebd24a3	-0.36942014

bias f4 [8]
0	0x3f085031	0.5324736
1	0x3e7ea057	0.24865852
2	0xbc8dedd0	-0.017325312
3	0xbe2d4dd1	-0.16924216
4	0xbedb2b6d	-0.4280657
5	0x3d8500a7	0.06494265
6	0x3e1d1a9e	0.15342185
7	0x3ec5ee60	0.38658428

weight f4 [4, 8]
0	0xbea198fe	-0.31562036
1	0x3e98e14d	0.2985939
2	0xbd970964	-0.07374838
3	0xbd4a7f30	-0.0494377
4	0xbe387911	-0.18014933
5	0x3d8f0ca0	0.0698483
6	0xbe9a8e9a	-0.3018692
7	0xbde8806c	-0.113526195
8	0x3e8f3abd	0.279745
9	0x3ec2cf10	0.380486
10	0xbeb28570	-0.3486743
11	0x3e32b521	0.17451908
12	0x3e0697ee	0.13143894
13	0xbf463788	-0.77428484
14	0x3e8719dc	0.26386917
15	0x3eb54773	0.35406074
16	0x3e874ec3	0.26427278
17	0x3f0c7ef0	0.5488119
18	0x3cc23ac1	0.023709657
19	0xbf44790e	-0.76747215
20	0xbf8d2374	-1.1026444
21	0xbdc0043c	-0.09375808
22	0x3e94f304	0.29091656
23	0x3e9640f6	0.29346436
24	0x3e02ad2e	0.12761375
25	0x3d85c244	0.06531194
26	0xbd8ed5cc	-0.06974372
27	0xbe7f4da0	-0.24931955
28	0xbdf6a508	-0.12043196
29	0x3cd06f50	0.025443703
30	0xbe271d39	-0.16319741
31	0x3d555d81	0.052091125

bias f4 [4]
0	0xbe2cf329	-0.16889633
1	0x3ec05631	0.3756576
2	0x3ecf35c2	0.404707
3	0xbea867c3	-0.32891664

weight f4 [1, 4]
0	0x3e682d14	0.22673446
1	0xbf153279	-0.5828014
2	0xbf130163	-0.5742399
3	0xbe7f74b4	-0.24946862
