Equalizer3LayerReLU.pth (torch, 6400 bytes, 5 tensors)

weight f4 [8, 64]
-0.0020878515 0.0044662845 0.0006259972 0.009586184 -0.0035282022 0.003941428 -0.010775172 -0.007322585
0.0031313386 0.00076158816 -0.00012455587 0.011016464 0.009159248 0.003197896 0.0012037785 -0.0076943547
-0.0021849487 0.0045439093 0.0006264366 -0.003793327 0.0015883001 0.0009914672 0.0040940903 -0.010593929
-0.010665002 -0.0017771656 -0.0009417457 0.00031009724 0.00028292654 -0.018820163 0.113880925 0.64661753
-0.50642407 0.12640378 -0.008618865 -0.0025292928 -0.007619089 -0.0023476863 -0.010956927 -0.008644034
0.00264181 -0.0035299903 0.006146158 -0.005813551 -0.000504002 0.007828695 -0.007080807 0.0069647417
0.008879915 0.0062318286 -0.0071483506 0.014547115 0.0054064803 -0.008757538 0.008924181 -0.0033685141
0.0068623074 0.0020007126 0.0054255635 -0.0015179166 -0.0047350037 0.0012788314 0.00058304716 0.006395435
0.005647394 -0.0027809949 0.0017061412 0.0048507308 -4.42363e-05 -0.0008204739 0.003908007 0.004593003
0.00062345277 9.3565985e-05 0.00032840483 -0.0012022115 -0.0025588162 0.0015637148 0.0047641206 0.0021544076
-0.0019080727 -0.0046898345 0.0024816697 0.0009535337 0.0027323887 -0.0018315384 -0.0016114521 0.0012535678
-0.002593326 0.0011674254 8.5489504e-05 -0.0020144773 0.0034998686 0.002286945 0.0011353709 0.073513135
-0.80124414 0.050465662 0.014836365 0.0057111084 0.002275361 0.0036185267 0.0024316895 -0.0017760274
-0.0047286176 0.0029748583 0.0029589143 0.0010602504 -0.0024236268 -0.0014560279 -0.0040144906 0.0024064877
-0.003250846 -0.0009144593 0.0015373355 -0.003512935 -0.0001483905 -0.00010456231 0.00035748724 0.0007710579
-0.00908573 -0.000434826 0.0052287634 0.0013413004 -0.0046990807 -0.0030530528 6.210783e-06 -0.0024740975
0.001409399 2.6203415e-05 8.986314e-05 0.0013907964 0.0019338179 0.0005985572 6.0995917e-05 -0.0032599212
0.0019548135 -0.00041729206 0.0015265065 0.0028488429 -0.0008046312 0.0015712765 -0.000949347 0.0005733348
0.0015800714 -0.00029821915 -0.000820024 -0.0013789613 0.00071469916 0.00048148425 -0.0029222223 -0.00026166593
-0.0013183134 0.00070701307 0.002224924 0.00012105837 -0.0005156811 0.00023295436 0.0067702215 0.0055682687
-0.5188045 -0.07024926 0.011368836 0.0052950536 -2.7885937e-05 0.0011555671 0.0014329897 0.0029048584
0.0007384378 0.0010140153 0.0011674869 0.0008191412 0.0019592852 0.001131885 0.00023297966 0.00018643685
0.0016775251 0.00040214424 -0.0007976938 0.0008003217 -0.00019906464 0.0017028052 0.0008148819 -0.00021123572
0.0021734564 -0.0009744973 0.00016226794 0.0012042011 -0.0028262543 -0.00036844917 0.0015503294 0.00042880233
0.006526414 0.0057557537 0.0033351518 -0.009200297 0.0045447093 0.00026169326 0.0011428418 0.002246937
0.0015734492 -0.00054702756 -0.0017101811 0.0040999474 0.004349126 0.0021158988 0.004573246 -0.0031709885
-0.004391034 -0.00041156038 -0.0052239727 0.00091990863 -0.004296358 0.006423635 -0.0027341943 0.0010075223
-0.0019223662 -0.0023824857 -0.0036580693 -0.003636075 -0.0033560842 -0.0020800391 -0.012510076 0.04733854
-0.5289136 0.69121903 0.015161796 -0.005120036 -0.002047088 0.0024297177 0.005147802 0.007751464
-0.0017365164 -3.5442354e-05 -0.0011539715 0.0016717542 -0.0013031277 -0.0012128456 0.0018336626 0.00011429626
-0.0043950235 0.0008343003 -0.0011985413 -0.0017667958 -0.00076519226 0.011180564 0.00062852766 0.00044937455
-0.00069688953 0.002914436 -0.0018741989 0.0015579574 -0.0009793384 0.006474787 0.0005781946 -0.0019135975
00000000: 56d4 08bb e959 923b f619 243a 5f0f 1d3c
00000010: 6939 67bb 1827 813b 598a 30bc 4cf2 efbb
00000020: 2537 4d3b 51a5 473a 369b 02b9 667e 343c
00000030: ac10 163c cb93 513b 1bc8 9d3a ed20 fcbb
00000040: 5b31 0fbb 13e5 943b 7337 243a 7799 78bb
00000050: 822e d03a 1ef4 813a b827 863b 2992 2dbc
00000060: 43bc 2ebc c8ef e8ba 7cdf 76ba 8c94 a239
00000070: c255 9439 be2c 9abc 673a e93d ba88 253f
00000080: 02a5 01bf fe6f 013e 2436 0dbc 7ec2 25bb
00000090: 8da9 f9bb a4db 19bb af84 33bc b59f 0dbc
000000a0: 3822 2d3b 6957 67bb b665 c93b 9a7f bebb
000000b0: 001f 04ba ed43 003c 1d06 e8bb 7d38 e43b
000000c0: 107d 113c 5e34 cc3b b63c eabb 0657 6e3c
000000d0: d828 b13b c77b 0fbc ba36 123c 4ac2 5cbb
000000e0: 35dd e03b 631e 033b edc8 b13b d4f4 c6ba
000000f0: 1728 9bbb 769e a73a a2d7 183a cc90 d13b
00000100: c60d b93b 5a41 36bb 99a0 df3a e1f2 9e3b
00000110: 5e8a 39b8 1215 57ba bd0e 803b e780 963b
00000120: 356f 233a db38 c438 c02d ac39 8693 9dba
00000130: d0b1 27bb 90f5 cc3a 571c 9c3b f630 0d3b
00000140: 4c18 faba 2fad 99bb 82a3 223b 90f6 793a
00000150: e011 333b 3b10 f0ba 5c37 d3ba c14e a43a
00000160: caf4 29bb 4c04 993a d448 b338 5205 04bb
00000170: 0d5e 653b 92e0 153b bad0 943a 0e8e 963d
00000180: 561e 4dbf 15b5 4e3d 3a14 733c 4024 bb3b
00000190: 391e 153b ce24 6d3b fb5c 1f3b 97c9 e8ba
000001a0: 85f2 9abb d7f5 423b 58ea 413b 1af8 8a3a
000001b0: b6d5 1ebb 30d8 beba fd8b 83bb 2ab6 1d3b
000001c0: 250c 55bb 53b8 6fba 6b80 c93a 4539 66bb
000001d0: 4699 1bb9 7648 dbb8 206d bb39 d220 4a3a
000001e0: 50dc 14bc 5cf9 e3b9 0c56 ab3b 93ce af3a
000001f0: bffa 99bb ba15 48bb 3866 d036 7824 22bb
00000200: 95bb b83a 68cf db37 e874 bc38 624b b63a
00000210: 2978 fd3a 7ee8 1c3a ded5 7f38 67a4 55bb
00000220: 541c 003b fec7 dab9 0f15 c83a a7b3 3a3b
00000230: e3ed 52ba 4af3 cd3a 99dd 78ba d94b 163a
00000240: 661a cf3a 4c5a 9cb9 e1f6 56ba 43be b4ba
00000250: a65a 3b3a b96f fc39 c182 3fbb 3530 89b9
00000260: 42cb acba d856 393a 08d0 113b b8e0 fd38
00000270: c62e 07ba 3645 7439 bcd8 dd3b 0676 b63b
00000280: 5fd0 04bf d8de 8fbd 5b44 3a3c 2182 ad3b
00000290: 98ec e9b7 6676 973a 28d3 bb3a 705f 3e3b
000002a0: b993 413a b5e8 843a 5c06 993a a3bb 563a
000002b0: 5a67 003b c25b 943a 004c 7439 437e 4339
000002c0: 67e0 db3a e3d6 d239 531c 51ba aecc 513a
000002d0: 02bc 50b9 a930 df3a cc9d 553a 287f 5db9
000002e0: 8c70 0e3b 6875 7fba 7826 2a39 49d6 9d3a
000002f0: ae38 39bb 692c c1b9 6c34 cb3a e0d0 e039
00000300: 87db d53b c39a bc3b 9092 5a3b d8bc 16bc
00000310: c9eb 943b e033 8939 68cb 953a 5941 133b
00000320: 323c ce3a 6666 0fba 2828 e0ba da58 863b
00000330: 1d83 8e3b e4aa 0a3b 2bdb 953b 5cd0 4fbb
00000340: aae2 8fbb b3c6 d7b9 dc2d abbb 0626 713a
00000350: 77c8 8cbb 5b7d d23b 2b30 33bb d70e 843a
00000360: e8f7 fbba 7a23 1cbb 38bc 6fbb 374b 6ebb
00000370: c0f1 5bbb 4451 08bb 10f7 4cbc 0fe6 413d
00000380: e266 07bf bbf3 303f 2e69 783c fac5 a7bb
00000390: 7028 06bb e63b 1f3b e5ae a83b feff fd3b
000003a0: d29b e3ba f0a7 14b8 dc40 97ba c31e db3a
000003b0: b6cd aaba 58f8 9eba 8257 f03a 56b2 ef38
000003c0: 2104 90bb f2b4 5a3a 5f18 9dba d493 e7ba
000003d0: 2f97 48ba af2e 373c c7c3 243a 089a eb39
000003e0: 77af 36ba 1f00 3f3b aea7 f5ba 6034 cc3a
000003f0: 255d 80ba 732a d43b fc91 173a add1 faba

bias f4 [8]
0.15225938 -0.5116012 0.821906 0.21107376 0.8775142 0.77008706 0.8286722 0.836232
00000000: e2e9 1b3e 4cf8 02bf 6e68 523f b823 583e
00000010: c5a4 603f 6d24 453f dc23 543f 4d13 563f

weight f4 [4, 8]
0.2000943 -0.14315213 0.07961409 0.004615541 -0.18589145 0.34612674 0.22907794 0.68097925
0.43996844 0.18559852 0.249081 0.090311915 0.5320446 0.117858484 0.22119147 -0.16371715
0.19202074 0.22121596 0.41299063 0.25377962 0.5382775 0.43777213 0.12894285 -0.22800487
0.10355719 0.4765783 0.43812275 0.18129137 0.5260063 0.36806902 0.12440284 -0.2379607
00000000: 85e5 4c3e 7996 12be b60c a33d f73d 973b
00000010: 545a 3ebe 8637 b13e 6893 6a3e a854 2e3f
00000020: 8b43 e13e 8a0d 3e3e 170f 7f3e 74f5 b83d
00000030: 1334 083f ca5f f13d 0480 623e 78a5 27be
00000040: 16a1 443e 7086 623e 8273 d33e 67ef 813e
00000050: 8ecc 093f ab23 e03e 9809 043e 1c7a 69be
00000060: cb15 d43d 1202 f43e a051 e03e 72a4 393e
00000070: 59a8 063f 8b73 bc3e ebc6 fe3d f8ab 73be

bias f4 [4]
0.4117617 0.04741197 0.13010542 0.15978687
00000000: 6ed2 d23e 0e33 423d 5b3a 053e 2b9f 233e

weight f4 [1, 4]
0.57222533 -0.24097203 -0.45765364 -0.1813029
00000000: 5c7d 123f 5fc1 76be 9451 eabe 78a7 39be
