model_MLP2.pth (torch, 5094 bytes, 5 tensors)

weight f4 [20, 2]
00000000: 2bf8 303e 394e 2cbf c480 2abf ce9a b6bf
00000010: 0a72 04be c0b2 38bf 718a a2bf 5600 093f
00000020: ea3c 6cbf 3657 09bf a2da 86bc f1fe 783f
00000030: 2464 e63e 2fd1 91bf 4c83 dd3e 7787 7d3d
00000040: c602 2d3e d936 4cbf ab20 d8be 7636 2a3f
00000050: b290 67be 7dc2 703f b753 893e 769e 1c3d
00000060: a730 32be 139a f03e 5f53 27bf bc59 dc3e
00000070: 8c63 36be 6bd2 af3e e348 c23e cfd9 83bf
00000080: 2e0c 593f d083 bcbe a76a 05be 71e5 b43f
00000090: b52b 2c3e 6cfa cb3d e0ff 0a3f b8bf f5be
0.17282169 -0.6730686 -0.6660273 -1.4265993 -0.12934127 -0.7214775 -1.2698499 0.5351614
-0.9228045 -0.536487 -0.016461674 0.9726401 0.44998276 -1.1391963 0.43264234 0.061896767
0.16895589 -0.7977119 -0.42212424 0.6648935 -0.2261379 0.94046766 0.26821682 0.038237058
-0.17401372 0.4699255 -0.6536159 0.43037212 -0.17811412 0.34340224 0.37946233 -1.0300845
0.8478421 -0.36819315 -0.13028966 1.413252 0.16813548 0.099598736 0.54296684 -0.47997832

bias f4 [20]
00000000: 384b 813d 58df c2be 5657 103f f7ff 91bf
00000010: 9fc9 b1be 5e47 2fbf cfdb 3fbf c397 0d3f
00000020: 7c0f 703f d868 023d dd80 54bf 67dc 13bf
00000030: 3150 db3e e12a 94be af49 733e c4a1 6cbe
00000040: 34db 56bf db61 89be aed4 3b3f 5b4b 4fbe
0.06313175 -0.38061023 0.56383264 -1.1406239 -0.34724137 -0.6846827 -0.74944776 0.55309695
0.9377363 0.031838268 -0.8300913 -0.5775818 0.4283462 -0.28938964 0.23758577 -0.23108584
-0.8392823 -0.2683247 0.733714 -0.2024359

weight f4 [10, 20]
00000000: 5b09 36be b926 2d3f 1537 b2be be14 7abf
00000010: 0cfb e13e 505f e2be 34d4 dcbe 50b7 963e
00000020: 6646 993d 3dfb 56bd 307f 14c1 4087 0b3e
00000030: b36f 943c 4c72 76bf 0564 c9be a5e0 ac3e
00000040: 262d b03e 8aaa f63e 5e65 4abe f8da f83d
00000050: ac7d f0bc 8ea9 25be a68c 0bbe 329e a83f
00000060: 5644 87be 6a49 bfc0 3611 f7be 7c57 32be
00000070: b254 be3e c157 80bf b30e 45c1 35a0 09be
00000080: 3eba 193e f555 153f 2b8f e2be 5da2 083e
00000090: 6f4c 053e bd96 1fbf a81e 033f a3b8 663e
000000a0: eebd 2bbe aecd 0abe 5197 6bbe d741 26be
000000b0: 4957 c73b 1112 693d 7092 6b3e 2e2f b3bd
000000c0: a892 e63d 4e89 f83c 5320 aa3d 2b7b a13d
000000d0: e8a6 ed3d 72eb 55be 7735 883d e1e2 a23d
000000e0: eda3 1a3d 88af 3bbe 6c40 11be 5443 29bc
000000f0: 52f2 093e 8f35 3b3f 6ab9 4f3e 21cd 93bf
00000100: 1e71 1f3d c55b 03bf dd42 aebe f1b7 0f3f
00000110: 44b2 4c3e 971a 883d ed2f c7bf 6457 46ba
00000120: 9f22 c63e 5b08 5cbf 8844 613e 855a 9b3e
00000130: a6f1 d6be 0c73 46bf 7b8e e53e 0696 6e3d
00000140: 1b1c 2cbe c9ee b3be ebb3 a63e 81d3 043f
00000150: 8fbc 86be c746 22be 53dc bfbf 1322 953e
00000160: cf6a 5e3f bfb8 103e 0071 cebe dab5 c7bd
00000170: adcd de3d ee3b 103d 7468 a63e 5b9b 2abf
00000180: bff8 29be dd4a b0bd d2f2 bc3e 675b 0dbe
00000190: b690 863e 9b5e df3e 263f d1bd 7755 27bf
000001a0: 3d3f 0d3e 6d34 533e ab70 763d df60 bfbe
000001b0: e50e 073f 0c32 f73d 0989 763f c027 e0bb
000001c0: eaba f33c 3fb0 43be f925 d2bd ba9f 3dbe
000001d0: 0f54 363f e8a9 753f 10d4 87be 1890 293f
000001e0: 888e 3bbe 6e7d 59be 6c8c a33d c0fe 363f
000001f0: bc2b df3d e777 84bc 3e73 e5bd 5357 023f
00000200: 86f2 da3e f7fe 83be ccd9 9bbf c2be 3e3d
00000210: 92c5 21bd 9669 82bf 7866 983e 4af7 05bf
00000220: 9148 b03e e018 8d3d 1957 233c d034 90be
00000230: 59dc 15c0 97d4 3abf c0be bebf d98a 533e
00000240: d82b 993f 9427 203e aaf6 78c1 7425 a93e
00000250: d781 903f 8151 9f3e 074f 51be e880 a3bd
00000260: 52f4 d23e 3bbb 21be 7265 4c3e e08a 2440
00000270: 10cb 38bf 6cde 503d 1658 953c 1c23 35bf
00000280: 8ff6 1e3d 1b58 03bf 2604 dcbb a04a 8cbe
00000290: 2a50 573f 26de e5bd 893f ac3f 748b 043e
000002a0: ddd9 a4be 2c62 02be 1047 6e3e b0d6 96bd
000002b0: 21e5 243f b32a a0bd 7855 e53e 9498 a43e
000002c0: 3e45 473d 530d 2f3f 3d6c 48be 6b46 94be
000002d0: ee46 1d3e 303d 4f3d aa7c 18be 64a5 1ebe
000002e0: d820 6e3d 1b6a 00be ceaf dabd c141 debd
000002f0: aa68 06be 48d9 ab3d a30d f2bd 18df 59be
00000300: 24ac 833d 40c7 75bc f00f 76bc 7bf3 21be
00000310: b0f2 723c 888b 043e dc26 c3bd 0c1d 2cbe
-0.17777006 0.6763721 -0.3480765 -0.976879 0.44136846 -0.44213343 -0.43130648 0.2943673
0.074841306 -0.052485693 -9.281052 0.13625813 0.018119669 -0.96268153 -0.3933412 0.3376514
0.34409446 0.48176986 -0.19765231 0.1215114 -0.0293568 -0.16177961 -0.13627872 1.3173277
-0.26419324 -5.9777117 -0.48255318 -0.17416185 0.37173992 -1.002678 -12.316089 -0.1344002
0.15012452 0.58334285 -0.44249853 0.13343187 0.13017438 -0.62339383 0.5121865 0.22531371
-0.16771671 -0.13555023 -0.23006941 -0.16236053 0.0060834032 0.056901995 0.2300508 -0.08749233
0.11258441 0.03033891 0.083069466 0.078848206 0.116041005 -0.20890597 0.066508226 0.0795343
0.037753988 -0.18328679 -0.14184731 -0.010330994 0.13471344 0.731286 0.20285574 -1.1546975
0.038926236 -0.51311904 -0.34035388 0.5614005 0.19989878 0.066456966 -1.5561501 -0.0007566123
0.3869829 -0.8595025 0.21998799 0.30342498 -0.41981238 -0.775193 0.44835266 0.058248542
-0.16807596 -0.35143116 0.32559142 0.5188523 -0.26315734 -0.15847312 -1.4989113 0.2912756
0.86881727 0.14132975 -0.40320587 -0.09751482 0.10879073 0.035213403 0.32501566 -0.66643304
-0.16598795 -0.08608029 0.36904007 -0.13804398 0.2628228 0.43626866 -0.10217123 -0.65364784
0.13793655 0.20625468 0.060166042 -0.37378594 0.527571 0.120700926 0.9630285 -0.006840676
0.029752214 -0.19110201 -0.10261149 -0.18517962 0.71222013 0.9596238 -0.26528978 0.66235495
-0.1831609 -0.21239254 0.07985768 0.7148247 0.108970135 -0.016170455 -0.11203621 0.50914496
0.42763156 -0.2578046 -1.2175841 0.04656864 -0.03949506 -1.0188472 0.29765677 -0.5233046
0.34430364 0.0688951 0.009969496 -0.28165293 -2.341574 -0.72980636 -1.4901962 0.20658435
1.1966505 0.15640098 -15.560221 0.33036387 1.1289624 0.3111687 -0.20440303 -0.07983571
0.41202027 -0.15794079 0.19960573 2.5709763 -0.7218485 0.050993368 0.01823048 -0.707567
0.038809355 -0.51306313 -0.0067143617 -0.27400684 0.84106696 -0.11224012 1.3456889 0.12943822
-0.32197466 -0.12732762 0.23269296 -0.07365167 0.6441212 -0.07820644 0.4479177 0.32147658
0.04865002 0.68379706 -0.1957254 -0.28959975 0.15359089 0.050595462 -0.14891306 -0.15492779
0.05813679 -0.12540476 -0.10678063 -0.10852385 -0.13125864 0.083910525 -0.11819007 -0.2127651
0.064293176 -0.015001118 -0.015018448 -0.15815537 0.014828369 0.12943852 -0.09528896 -0.16807956

bias f4 [10]
00000000: 5ceb a33e 6eac 0a3f daf5 5ebc b045 383f
00000010: 6cb0 d43e a8d9 dfbd 73dd ed3d eabf cebd
00000020: cf81 84bd d9ea 59be
0.32015502 0.54169357 -0.01360842 0.71981335 0.4154085 -0.109301865 0.11614504 -0.100951985
-0.064700715 -0.21280994

weight f4 [1, 10]
00000000: bd07 f7be ec0e 2dbf 64dc 1ebe 155d fdbe
00000010: 173e 213f 5b64 673f bb89 8f3e d996 4e3f
00000020: 9c62 3ebf 7a14 423e
-0.4824809 -0.67600894 -0.1551376 -0.49485078 0.62985367 0.90387505 0.28034768 0.80698925
-0.74369216 0.18953124
