Model_MLP.pth (torch, 3488 bytes, 3 tensors)

weight f4 [10, 2]
00000000: 227b 053f f20a 22bf 2a6a 2cbf 72d4 533e
00000010: d8ea 4abf bf77 c13e 4ba5 d23e c78b 3b3e
00000020: 0e55 47be 2713 463f 8ad8 69be ee8d 0e3f
00000030: 72ee 593e 68c0 4ebf 7f29 7f3f 19fd c03e
00000040: 60ab 8cbe 3bbd bc3e ffb5 e53e 6658 843f
0.5214101 -0.6329795 -0.67349494 0.2068651 -0.79264593 0.37786672 0.41141734 0.1831504
-0.1946604 0.77372974 -0.2283651 0.5568532 0.21282366 -0.8076234 0.99672693 0.37693098
-0.274745 0.3686312 0.44865415 1.0339477

bias f4 [10]
00000000: 4ec2 88be 8e63 54bf ab6d 903d fd0b c73e
00000010: 72d4 883f fe0f 123f f011 8b3f 9880 f9be
00000020: fbcb 9f3d 6743 403f
-0.26710743 -0.8296441 0.070521675 0.38876334 1.0689833 0.5705565 1.0864849 -0.48730922
0.07802578 0.7510285

weight f4 [1, 10]
00000000: 07c9 22be 35d4 dc3e 4d02 cdbe 96f0 52be
00000010: b859 683f 08bd 943e e7f0 1abf 2d5a e23e
00000020: 7117 ecbd 36cb f1be
-0.15896998 0.4313065 -0.40040818 -0.20599589 0.907619 0.2905047 -0.6052384 0.44209424
-0.115279086 -0.4722535
