Model_MLP.pth (torch, 3488 bytes, 3 tensors)

weight f4 [10, 2]
-1.0213236 -0.8824636 0.9266383 -0.8292615 -1.5153008 0.38129282 -0.6073118 -0.29882064
0.8568004 0.55683213 0.0005036977 -0.009691177 -0.98507756 -0.43260115 0.26904768 -0.89173156
-0.4617832 -1.1406369 -0.23567052 0.6305735
00000000: bbba 82bf 22e9 61bf 2b38 6d3f 7b4a 54bf
00000010: 60f5 c1bf d038 c33e c978 1bbf 05ff 98be
00000020: 4557 5b3f 8d8c 0e3f 950a 043a bec7 1ebc
00000030: 0b2e 7cbf e67d ddbe 9ec0 893e 8548 64bf
00000040: d96e ecbe 6400 92bf 9d53 71be 446d 213f

bias f4 [10]
-2.3952923 -0.23395196 -1.7088628 0.056337234 -0.7678173 -0.022441382 -1.05875 1.206159
-0.73337775 0.67586946
00000000: 784c 19c0 1a91 6fbe 04bc dabf dfc1 663d
00000010: ad8f 44bf fdd6 b7bc 1f85 87bf 6b63 9a3f
00000020: a5be 3bbf c805 2d3f

weight f4 [1, 10]
-0.13268176 -0.3053825 0.20793404 0.24091005 0.25959378 0.004042453 -0.22081813 -0.5932838
-0.32395944 0.3518919
00000000: badd 07be 185b 9cbe a9ec 543e 20b1 763e
00000010: 7ae9 843e 8e76 843b 261e 62be 72e1 17bf
00000020: 03de a5be 2d2b b43e
