model_RNN.pth (torch, 181076 bytes, 9 tensors)

weight_ih_l0 f4 [120, 2]
0	0x3e3ad9ad	0.18247099
1	0xbedea61b	-0.43486103
2	0x3c299a7f	0.010351776
3	0x3e60809a	0.21924058
4	0x3eea7f88	0.45800424
5	0xc00a29b2	-2.1587949
6	0x3b23f11a	0.0025015534
7	0xbafb5ded	-0.0019177772
8	0x3e86870e	0.26274914
9	0xbf878f91	-1.0590688
10	0x3eeb0330	0.4590087
11	0xc017a4ba	-2.369429
12	0x3c60d1e7	0.01372192
13	0x3cd6b400	0.026208878
14	0xbd83430a	-0.06409271
15	0x3e90e0b1	0.28296426
16	0xbd66d0ec	-0.056351587
17	0xbde0bc49	-0.109734125
18	0x3d926074	0.07147303
19	0xbf0ce276	-0.5503305
20	0xbe175375	-0.1477793
21	0xbcae5bcb	-0.021284005
22	0xbdc2a5e0	-0.095042944
23	0xbd529110	-0.051407874
24	0x3eabe8c4	0.33576024
25	0xbf98d063	-1.1938595
26	0xbe63d436	-0.22248921
27	0x3e338a82	0.17533305
28	0x3f12ad89	0.57296044
29	0xc00cc452	-2.1994824
30	0x3e166b2e	0.14689323
31	0x3ee295ab	0.44254813
32	0xbdb1482a	-0.08656342
33	0x3dfd6026	0.123718545
34	0xbdcea896	-0.10090749
35	0x3d5d815e	0.054078452
36	0xbe18efd3	-0.14935236
37	0x3f561a67	0.83634037
38	0x3d89d5c5	0.067302264
39	0x3e6b8506	0.22999963
40	0x3f096091	0.53662974
41	0xc026d9ab	-2.6070354
42	0xbd79270e	-0.06082826
43	0xbeb164a7	-0.34647104
44	0x3d8074f6	0.062723085
45	0xbef5ba83	-0.4799386
46	0x3cecc405	0.028902063
47	0xbeab2d08	-0.33432794
48	0x3f0d8f96	0.5529722
49	0xc016ba71	-2.3551295
50	0xbc9cc4b5	-0.019136766
51	0x3da06d89	0.07833392
52	0x3bf08b4c	0.007340824
53	0xbd7c16a8	-0.061545044
54	0xbda84e2f	-0.08218037
55	0xbbc3cf4b	-0.005975639
56	0xbdcd5e54	-0.10027757
57	0x3f4ba553	0.7954914
58	0xbee6d8cd	-0.4508728
59	0x40066a43	2.1002357
60	0x3e8183b1	0.25295785
61	0xbf88ac64	-1.067761
62	0xbda5f52f	-0.08103406
63	0x3db6fe05	0.08935169
64	0x3f060b30	0.5236082
65	0xc01d55a6	-2.4583526
66	0xbc856d25	-0.016287396
67	0x3e8d95c2	0.2765332
68	0xbfd0b869	-1.6306278
69	0xc00ca4d6	-2.1975608
70	0x3d4861ee	0.048921518
71	0xbe9f070e	-0.3106007
72	0x3e11a8e8	0.14224589
73	0x3da459c1	0.08024932
74	0x3e23247b	0.15931885
75	0xbf2ab00e	-0.6667489
76	0x3e332a85	0.17496689
77	0xbebb45ed	-0.36576787
78	0x3dda8184	0.106692344
79	0x3e04fce5	0.12987097
80	0x3caa90c7	0.020820988
81	0x3b60254e	0.0034201923
82	0x3da8d8ec	0.082444996
83	0xbeb68e12	-0.35655266
84	0xbe727ad6	-0.2367967
85	0xbd071dae	-0.03298729
86	0x3ddf017d	0.10888956
87	0xbf0eb2ae	-0.55741394
88	0xbef813d7	-0.48452637
89	0x401828bf	2.377487
90	0xbdcb13f6	-0.099159166
91	0x3ecd4e62	0.40098864
92	0x3f4afbda	0.79290545
93	0xc0667d1f	-3.6013868
94	0xbcb9750d	-0.022638822
95	0x3cc470ac	0.023979507
96	0x3de18e46	0.11013465
97	0xbec97280	-0.3934517
98	0xbdd51b84	-0.10405639
99	0xbee6bec6	-0.45067424
100	0xbe3a4a16	-0.18192324
101	0x3f629b59	0.8851829
102	0x3e5448b1	0.20730855
103	0x3e80bb53	0.25142917
104	0xbdaf7fe8	-0.08569318
105	0x3e6c0c39	0.23051538
106	0xbd61fa7b	-0.055170517
107	0xbd558126	-0.05212512
108	0x3cc0b653	0.023524439
109	0x3dd0c56a	0.10193904
110	0x3dfba74e	0.1228777
111	0xbf549fad	-0.83056146
112	0xbea5241e	-0.32254118
113	0x3f9291ce	1.1450746
114	0xbe86eb97	-0.26351616
115	0x3f94148b	1.1568769
116	0x3da11c77	0.07866757
117	0xbed27303	-0.41103372
118	0x3e922e85	0.28551117
119	0xbf979307	-1.1841744
120	0x3deea863	0.11653211
121	0xbe94a5a0	-0.29032612
122	0x3cb99f8b	0.022659084
123	0x3cb37c36	0.021909814
124	0xbe8a9fc7	-0.27075025
125	0x3f7bc89b	0.98352975
126	0xbf05b6c5	-0.5223201
127	0x400cdc98	2.200964
128	0x3dcf7a1a	0.10130711
129	0xbdf9d732	-0.121992484
130	0x3ee726e1	0.4514685
131	0xc021ac6a	-2.5261483
132	0x3d415ab2	0.047205634
133	0xbdbaf5e7	-0.091289334
134	0x3e8b5b9b	0.27218327
135	0xbd5971ae	-0.05308693
136	0x3eaf71a9	0.34266403
137	0xbd8a1827	-0.06742888
138	0x3c11834d	0.008881402
139	0x3e24d5b6	0.16097149
140	0xbd500673	-0.0507874
141	0x3e2f29b2	0.17105749
142	0x3f0c1bba	0.5472981
143	0xc014d8d0	-2.3257332
144	0x3dc3fa44	0.09569219
145	0xbf1238e4	-0.5711806
146	0xbf3488b2	-0.7052108
147	0x40335fef	2.8027303
148	0x3d30a396	0.043124758
149	0x3e20c2ea	0.15699354
150	0xbf0e23e9	-0.55523545
151	0x4019aa35	2.4010136
152	0xbf071fca	-0.5278288
153	0x4009eea8	2.1551914
154	0x3e2609b1	0.16214634
155	0xbf5ea99f	-0.8697757
156	0xbe526ce4	-0.20549351
157	0x3ed145e8	0.40873647
158	0xbee1a4c3	-0.44071016
159	0x4024d01b	2.5752017
160	0x3eed6b1f	0.4637079
161	0xc01fb5f2	-2.49548
162	0xbefcc941	-0.49372295
163	0xbe7055da	-0.2347025
164	0x3d6a37fd	0.0571823
165	0x3c1ef529	0.009702005
166	0xbe3aa35c	-0.18226379
167	0x3f71c3e2	0.9443952
168	0x3eb7382d	0.35785046
169	0xbf9a3d6a	-1.2049992
170	0xbe42149f	-0.18953179
171	0x3bab37a4	0.0052251387
172	0xbd1fab6b	-0.038981836
173	0x3de18953	0.11012521
174	0x3d419922	0.04726518
175	0xbe99e117	-0.30054542
176	0xbe5484c5	-0.20753773
177	0x3f76e89c	0.96448684
178	0x3e75021f	0.2392659
179	0xbf077517	-0.5291304
180	0xbd5b3533	-0.05351753
181	0x3c8ba330	0.017045587
182	0xbd58a4d9	-0.052891586
183	0xbe7ceb6b	-0.2469918
184	0xbe586a86	-0.21134385
185	0x3f254aa4	0.6456702
186	0xbda667b1	-0.08125246
187	0x3f0d66ac	0.5523479
188	0x3f2d0b34	0.6759522
189	0xc01db2c9	-2.4640372
190	0x3fca4224	1.5801435
191	0x3e6bdee5	0.23034246
192	0x3e456d29	0.19279923
193	0xbf457981	-0.77138525
194	0xbdd272ea	-0.10275824
195	0x3ee844a7	0.45364878
196	0xbdfc0b67	-0.12306862
197	0x3e1cad4a	0.1530048
198	0xb894ec20	-7.101172e-05
199	0x3ee4b5c5	0.4466993
200	0x3eae80a9	0.34082535
201	0x3f02b140	0.5105171
202	0xbda5711f	-0.08078217
203	0x3ccb087c	0.02478432
204	0x3e2ada53	0.16684847
205	0xbe39a080	-0.18127632
206	0x3f06d002	0.52661145
207	0xc0169b89	-2.353243
208	0x3deba73c	0.11506507
209	0xbe9d7072	-0.3074985
210	0xbf086499	-0.532785
211	0x4011ffab	2.2812297
212	0xbd07f3df	-0.033191558
213	0xbe4d5454	-0.200517
214	0x3d60e7ac	0.05490844
215	0xbde35f7f	-0.11102199
216	0x3e4819da	0.19541112
217	0xbf50489d	-0.813608
218	0x3ad7227f	0.0016413479
219	0x3e085469	0.1331345
220	0x3c2c7414	0.010525722
221	0xbc86fa60	-0.01647681
222	0x3dcf12df	0.10111021
223	0xbe9b9fcf	-0.30395362
224	0x3e8561e7	0.26051256
225	0xbf7add3f	-0.97993845
226	0xbe00d21f	-0.12580155
227	0x3d409179	0.047013734
228	0xc06888cf	-3.6333501
229	0xbf940a36	-1.1565616
230	0xbd9163a2	-0.070990816
231	0xbc0b9ff5	-0.008522023
232	0x3e256732	0.16152647
233	0x3e624fae	0.22100708
234	0xc035f23c	-2.8429098
235	0xbe7ab9c2	-0.24484923
236	0x3ea743fa	0.3266905
237	0xbf887292	-1.0659964
238	0xbee18fbd	-0.44054976
239	0xbe13cfb0	-0.14434695

weight_hh_l0 f4 [120, 120]
0	0xbe2d4989	-0.16922583
1	0xbcd48427	-0.025941921
2	0x3bdf754b	0.0068194023
3	0xbe1cf0d1	-0.15326239
4	0x3af513d7	0.0018697929
5	0xbdbdd2e2	-0.09268738
6	0xbe0db8ce	-0.13840029
7	0xbd570477	-0.052494492
8	0xbdd86965	-0.105669774
9	0x3d930ed8	0.071805656
10	0x3d1e5af6	0.038660966
11	0xbe2c93ad	-0.16853209
12	0xbd985872	-0.074387446
13	0x3e5b5277	0.21418177
14	0xbd9b9df6	-0.07598488
15	0xbd044bb0	-0.032298744
16	0xbdb842ff	-0.089971535
17	0x3e0204f8	0.12697208
18	0x3bf884da	0.0075841965
19	0x3cde7dd5	0.02715961
20	0x3befa39e	0.007313206
21	0x3e4eadf1	0.20183541
22	0x3dae07a1	0.08497549
23	0x3c8f4fde	0.017494138
24	0xbdf99355	-0.121863045
25	0x3e959535	0.29215398
26	0xbe550eab	-0.20806377
27	0xbe92fee1	-0.28710082
28	0x3dca2966	0.098711774
29	0x3de6e21b	0.11273595
30	0x3d99ff41	0.07519389
31	0x3eb382c7	0.35060713
32	0x3d336555	0.04379781
33	0x3d823d28	0.06359321
34	0x3d7e0b67	0.062022593
35	0x3db2f445	0.08737997
36	0x3eb43644	0.3519765
37	0x3db5603f	0.08856248
38	0x3d44deb7	0.04806396
39	0xbdbf6d85	-0.09347061
40	0xbca7edf4	-0.020499207
41	0xbe1e4d6c	-0.15459222
42	0x3e426f38	0.18987739
43	0xbce42929	-0.027851658
44	0xbd0542b2	-0.03253431
45	0xbd95c41a	-0.07312794
46	0xbdebd308	-0.115148604
47	0x3e2baee5	0.16765936
48	0x3dae7aba	0.08519502
49	0x3e841e21	0.25804237
50	0x3ddaa98b	0.10676869
51	0xbde4dece	-0.11175309
52	0xbd78353e	-0.06059765
53	0xbeb480aa	-0.35254413
54	0x3dcb679f	0.099318735
55	0xbe5f938c	-0.21833628
56	0x3db296a5	0.087201394
57	0x3ca4166e	0.020030227
58	0xbe058389	-0.13038458
59	0x3d84dedf	0.06487822
60	0xbe298e71	-0.16558243
61	0xbe50a534	-0.2037552
62	0xbdaf3fda	-0.085571006
63	0x3d155f87	0.036468055
64	0xbe4e2112	-0.20129803
65	0xbcdfa15a	-0.027298618
66	0xbcd0bc98	-0.025480554
67	0xbe9ae08c	-0.3024944
68	0x3e5ca4e2	0.21547273
69	0x3e2c921b	0.1685261
70	0x3dbb20c9	0.09137113
71	0xbd0cd28a	-0.034380473
72	0x3c9562ca	0.018235583
73	0x3ccd554f	0.025065092
74	0xbd2ab73b	-0.04167865
75	0x3c8298dd	0.015942032
76	0xbd1ea9fa	-0.03873632
77	0xbe026231	-0.1273277
78	0xbc76030e	-0.015015377
79	0xbc691acc	-0.01422758
80	0xbda4e78f	-0.08051979
81	0xbe8c969f	-0.27458665
82	0x3e5f4f26	0.21807536
83	0x3d9345ba	0.07191034
84	0x3aed18b1	0.0018089024
85	0xbe0ed782	-0.13949397
86	0xbd8949dc	-0.06703541
87	0x3e8e230a	0.27761108
88	0xbd67c85a	-0.056587555
89	0xbe7ffc5e	-0.24998614
90	0x3eb1e55f	0.3474531
91	0xbd97e99c	-0.07417604
92	0x3d9e35a3	0.07725074
93	0xbb80b075	-0.0039272853
94	0x3e216991	0.15762927
95	0xbe75bc9a	-0.23997727
96	0xbd22efc9	-0.03977946
97	0x3e214966	0.15750656
98	0xbdcc1145	-0.099642314
99	0x3caf93e8	0.021432832
100	0x3cba7d7a	0.02276491
101	0x3e6c62ad	0.23084517
102	0xbe20cbc3	-0.15702729
103	0x3dc21231	0.09476126
104	0xbd6d63ff	-0.05795669
105	0xbc76ebe6	-0.015070891
106	0x3e8b5c35	0.27218786
107	0xbdccf07a	-0.10006805
108	0xbe6d5675	-0.23177512
109	0x3db55514	0.08854118
110	0x3dff7374	0.12473193
111	0xbe0e7f55	-0.13915761
112	0xbcf12ece	-0.029441264
113	0x3e705c64	0.23472744
114	0xbdab5a7d	-0.08366869
115	0x3e819f7f	0.25316998
116	0xbe8c939a	-0.2745636
117	0xbde0334d	-0.10947285
118	0x3e015b29	0.12632431
119	0xbba4ec85	-0.005033078
120	0xbe1b63d9	-0.15174808
121	0xbd896082	-0.067078605
122	0xbdb0b50e	-0.086282834
123	0x3ce993ba	0.028512824
124	0xbd654a42	-0.05597902
125	0x3c9025f8	0.01759623
126	0x3d644083	0.055725586
127	0xbd317f66	-0.043334387
128	0x3e8b1c97	0.2717025
129	0xbd54493c	-0.051827654
130	0x3d512103	0.051056873
131	0x3e29257f	0.1651821
132	0xbd0c28ec	-0.034218714
133	0xbe1a0171	-0.15039612
134	0x3d9c5719	0.076338
135	0xbd0af416	-0.033924185
136	0xbd4421c4	-0.047883764
137	0xbe262e64	-0.16228634
138	0x3d8a92af	0.06766259
139	0xbde5f6d6	-0.11228721
140	0xbd45a72d	-0.048255134
141	0xbe0f3622	-0.13985494
142	0xbe4d7bb6	-0.20066723
143	0xbe071f1c	-0.13195461
144	0x3d83df8b	0.06439122
145	0xbe99e233	-0.3005539
146	0x3e4e97fa	0.20175162
147	0x3e23820d	0.15967579
148	0xbe0034d6	-0.12520155
149	0x3d835ed9	0.06414575
150	0xbdefddf5	-0.11712257
151	0xbeaca26b	-0.33717665
152	0xbe2c8e5f	-0.16851185
153	0x3df3efce	0.119109735
154	0xbe13c54d	-0.14430733
155	0xbdb7a5a9	-0.08967144
156	0xbe600d27	-0.21880017
157	0x3cd546b4	0.02603469
158	0xbc94f21c	-0.018181853
159	0x3d9c3177	0.07626622
160	0xbcc1618a	-0.02360608
161	0x3d1afc5f	0.037838336
162	0xbe4c945a	-0.19978467
163	0xbc1136f4	-0.0088631995
164	0xbe0ba430	-0.13636851
165	0xbe0b8f4b	-0.1362888
166	0x3d734988	0.059396297
167	0xbe2ba79a	-0.16763154
168	0xbd453a73	-0.048151445
169	0xbe138f4a	-0.14410129
170	0xbe2baa33	-0.16764145
171	0x3e49d36b	0.19709556
172	0x3d9a14d6	0.075235054
173	0x3e9b1cb5	0.3029534
174	0xbe659847	-0.2242137
175	0x3d36d136	0.044633113
176	0x3d487faa	0.048949875
177	0x3cc9f9c8	0.024655238
178	0x3e0a1d46	0.1348773
179	0xbd17fc8b	-0.037106078
180	0x3e899d36	0.26877755
181	0x3db43bcd	0.088004686
182	0xbd8d893f	-0.06910943
183	0xbd2f8238	-0.042848796
184	0x3d6f4b9e	0.058421724
185	0x3dcc5237	0.09976619
186	0x3d9ca738	0.07649082
187	0x3e9d7bad	0.3075842
188	0xbe7d6cea	-0.24748579
189	0xbe427487	-0.18989764
190	0xbce8bb59	-0.028409647
191	0x3c82ecea	0.01598211
192	0x3da6b82f	0.08140599
193	0x3e342065	0.17590483
194	0x3d67c477	0.056583848
195	0x3d4ea8b9	0.050453875
196	0x3d3a33fc	0.045459732
197	0x3e0c40ab	0.13696544
198	0xbc92bd29	-0.017912464
199	0x3cd7b623	0.026331967
200	0x3e38af6f	0.18035673
201	0x3e0a058b	0.13478677
202	0xbe00e483	-0.1258717
203	0xbe312471	-0.17299058
204	0x3d78caf4	0.060740426
205	0x3e663f37	0.22485052
206	0x3e00063c	0.12502378
207	0xbe8c8c0d	-0.274506
208	0x3e1abbe0	0.15110731
209	0x3da1a22e	0.078922614
210	0xbe962df0	-0.29331923
211	0x3ddff8d6	0.109361336
212	0x3cfdecdf	0.030996738
213	0xbd33bb2f	-0.043879684
214	0xbe7c0b84	-0.24613768
215	0x3d97898e	0.07399283
216	0xbbbe4b17	-0.0058072913
217	0xbd6d9bf8	-0.05801007
218	0xbc8fb07a	-0.017540205
219	0x3caf477c	0.021396391
220	0xbdfa8879	-0.12233061
221	0xbda14dc8	-0.07876164
222	0x3e0d8d22	0.13823369
223	0xbd2c275c	-0.042029724
224	0xbd791cb3	-0.060818385
225	0x3c46f875	0.012144198
226	0xbe830293	-0.255879
227	0x3e3dc972	0.18533877
228	0x3d8f07a6	0.06983881
229	0xbcd37eef	-0.025817363
230	0xbd455640	-0.048177958
231	0x3e8d4fdc	0.2759999
232	0x3d31ba59	0.043390606
233	0xbeb197e6	-0.34686202
234	0xbc100751	-0.008790807
235	0xbe7af4b9	-0.24507417
236	0x3e9c2e0d	0.30503884
237	0x3d103fa2	0.035216935
238	0xbe2a3bc5	-0.16624363
239	0xbc5cd862	-0.013479324
240	0xbd87e668	-0.066357434
241	0x3d890738	0.0669083
242	0xbea7e2ef	-0.32790324
243	0x3ab9900a	0.0014157307
244	0x3d2f46e8	0.04279223
245	0xbc152043	-0.00910193
246	0xbdaef353	-0.08542504
247	0x3c2d92f7	0.010594121
248	0x3ba884d8	0.0051427893
249	0x3d823b5c	0.06358978
250	0xbd8fb636	-0.07017176
251	0x3da7729d	0.081761576
252	0x3d9e07ba	0.077163175
253	0x3d93531a	0.07193585
254	0x3e4a35f1	0.1974714
255	0xbc99b9b9	-0.018765317

bias_ih_l0 f4 [120]
0	0x3d71e644	0.05905749
1	0xbeea6c8e	-0.45785946
2	0x3da46f56	0.08029048
3	0x3f290e34	0.660373
4	0xbf1f837e	-0.62310016
5	0x3de25c34	0.110527426
6	0x3fdf9c9a	1.7469666
7	0x3e9614cc	0.29312742
8	0x3fa250cc	1.2680907
9	0xbd612b75	-0.054973084
10	0x3f106cc5	0.5641597
11	0x3fb28e32	1.3949645
12	0xbed7c290	-0.42140627
13	0xbf8e9c9e	-1.1141546
14	0xbea7aac9	-0.32747486
15	0x3e905ea6	0.2819721
16	0xbe0f0df7	-0.13970171
17	0xbfa2d93c	-1.2722545
18	0xbee2b916	-0.44281834
19	0xbe034102	-0.12817767
20	0x3d416c92	0.04722268
21	0xbd2d1f69	-0.042266283
22	0xbe0076de	-0.12545344
23	0x3d7f455d	0.06232201
24	0x3d98c5f5	0.07459632
25	0xbfa2c8b1	-1.2717496
26	0x3f8d610c	1.1045241
27	0x3f848cd1	1.0355474
28	0xbed8cbf5	-0.42343107
29	0xbd698737	-0.057013717
30	0xbf129092	-0.57251847
31	0xbf8978d5	-1.074
32	0xbed7bf07	-0.4213793
33	0xbe0a53b9	-0.135085
34	0xbe8da2c5	-0.27663246
35	0xbf5d95ca	-0.86556685
36	0xbf60807f	-0.8769607
37	0x3dc2a701	0.0950451
38	0xbf32c458	-0.69830847
39	0x3f4c88b2	0.7989608
40	0x3cbfcbb0	0.023412555
41	0xbd179be5	-0.037013907
42	0xbf8410c6	-1.0317619
43	0x3ea1315b	0.31482968
44	0x3d4b0a02	0.04957009
45	0x3e7fabb2	0.2496784
46	0xbbe126ec	-0.006871095
47	0xbf354625	-0.7081016
48	0xbcc0162d	-0.023448074
49	0xbef11b79	-0.47091272
50	0xbec12327	-0.37722132
51	0x3ef8be7c	0.48582828
52	0x3c892627	0.016741825
53	0x3f64c9e5	0.89370567
54	0xbfa4e5cc	-1.2882628
55	0x3ee5e1ce	0.44898838
56	0xbcce85ec	-0.025210343
57	0x3ec17aad	0.37788907
58	0xbe45d574	-0.19319707
59	0xbf3ced3e	-0.737995
60	0x3f724af9	0.9464565
61	0xbd7a6010	-0.06112677
62	0x3efb716a	0.49109966
63	0xbdd433a9	-0.10361416
64	0xbd9d90fe	-0.07693671
65	0x3d76deba	0.060271002
66	0x3fd4c4f4	1.6622605
67	0x3f788135	0.97072154
68	0xbf11c41f	-0.5693988
69	0xbf4b95f5	-0.7952569
70	0xbf5e1354	-0.8674824
71	0xbe92590b	-0.2858356
72	0xbef286ba	-0.47368413
73	0x3e6e7df0	0.23290229
74	0xbee50e12	-0.44737297
75	0x3e03332e	0.12812492
76	0x3f254e10	0.6457224
77	0x3f0e332b	0.55546826
78	0x3d87d0c6	0.06631617
79	0xbe0bfd46	-0.13670835
80	0x3de56811	0.1120149
81	0x3f3a3cb0	0.7274885
82	0xbf825b87	-1.0184182
83	0xbefba789	-0.49151257
84	0x3f1b107c	0.6057203
85	0x3f61e946	0.8824657
86	0x3edf2651	0.4358392
87	0xbe0dbb20	-0.13840914
88	0x3f1367ef	0.57580465
89	0x3e59c97b	0.21268265
90	0xbf75d05a	-0.96021044
91	0x3f2f84e3	0.68562144
92	0xbeb920aa	-0.36157733
93	0x3d15d2e0	0.03657806
94	0xbf0e0a75	-0.55484706
95	0x3f4a3214	0.78982663
96	0x3eb409ff	0.35163876
97	0xbc7e3765	-0.015516137
98	0x3f0aa849	0.5416303
99	0x3e8858c1	0.26630214
100	0xbf31ade0	-0.6940594
101	0xbf86b317	-1.0523404
102	0x3e062f8d	0.13104077
103	0xbee4c063	-0.4467803
104	0x3effd42e	0.49966568
105	0x3f11bb1b	0.56926125
106	0xbe814659	-0.25248984
107	0x3f94ce69	1.1625491
108	0x3ebe745b	0.37198147
109	0x3d60cfd2	0.054885693
110	0x3d8cf8a9	0.06883366
111	0x3eda69b0	0.42658758
112	0x3f01db1b	0.50724953
113	0xbfc89c2f	-1.5672663
114	0xbe68fd40	-0.22752857
115	0xbfaa510c	-1.3305984
116	0x3e26cc1b	0.16288798
117	0x3e9012a5	0.28139225
118	0xbec25b12	-0.37960106
119	0x3ef2ce6c	0.47423112

bias_hh_l0 f4 [120]
0	0x3e2a988a	0.16659752
1	0xbef030c7	-0.46912214
2	0x3d956cc1	0.07296134
3	0x3f16f0e8	0.58961344
4	0xbf2158a3	-0.63025874
5	0x3dc70e8e	0.09719573
6	0x3fec7bfe	1.847534
7	0x3e801742	0.25017744
8	0x3fb3f7bd	1.4059979
9	0xbe06ea6b	-0.13175361
10	0x3ef43138	0.476938
11	0x3faf8ef6	1.3715503
12	0xbf045015	-0.51684695
13	0xbf93d1da	-1.1548417
14	0xbe9b1bdb	-0.3029469
15	0x3e977950	0.29584742
16	0xbe220d9a	-0.15825501
17	0xbf9d508a	-1.2290204
18	0xbee22496	-0.44168538
19	0x3bb2f456	0.005461256
20	0x3dce8258	0.10083455
21	0xbe50c331	-0.2038696
22	0xbe6b5e8d	-0.22985287
23	0x3e381168	0.1797539
24	0xbdada470	-0.084786296
25	0xbf9baf36	-1.2162845
26	0x3f917baa	1.1365864
27	0x3f87debd	1.0614849
28	0xbf094f9b	-0.53637093
29	0xbd8b4c65	-0.068016805
30	0xbefbf97c	-0.4921378
31	0xbf89bf98	-1.0761595
32	0xbedb8606	-0.4287569
33	0xbe40883b	-0.18801968
34	0xbe9e46ae	-0.309133
35	0xbf5fe06c	-0.87451816
36	0xbf6eb219	-0.93240505
37	0x3e75c2d5	0.24000104
38	0xbf3ba65d	-0.73300725
39	0x3f416d2e	0.7555722
40	0xbcca2b2e	-0.024678793
41	0xbe0da3e5	-0.13832052
42	0xbf861565	-1.0475279
43	0x3e74bb9b	0.23899691
44	0xbd556062	-0.05209387
45	0x3e71fab8	0.23630798
46	0xbc87907d	-0.01654839
47	0xbf4d62fd	-0.8022917
48	0xbdf5730d	-0.11984835
49	0xbeae4e70	-0.34044218
50	0xbed9c651	-0.42534116
51	0x3f056e3a	0.5212132
52	0xbd3edf48	-0.046599656
53	0x3f5f2fb3	0.8718216
54	0xbf9fd2e6	-1.2486236
55	0x3ee18526	0.44046897
56	0x3d795628	0.06087318
57	0x3eed5cbf	0.46359822
58	0xbe593558	-0.21211755
59	0xbf185298	-0.5950103
60	0x3f6a6a51	0.91568476
61	0x3d64e008	0.055877715
62	0x3ee0baf0	0.43892622
63	0x3c2fc56b	0.01072822
64	0xbd5878e9	-0.052849684
65	0x3e4628d8	0.19351518
66	0x3fc69442	1.5513995
67	0x3f74282f	0.95373815
68	0xbf317fae	-0.6933545
69	0xbf4455d1	-0.76693445
70	0xbf52766f	-0.82211965
71	0xbe8d1764	-0.27556908
72	0xbf02fb78	-0.5116496
73	0x3e9a9a34	0.30195773
74	0xbec92179	-0.3928335
75	0x3d4bb21d	0.04973041
76	0x3f1a5758	0.60289526
77	0x3efa109d	0.488408
78	0x3e1c990c	0.15292758
79	0xbd5ce5f3	-0.053930234
80	0xbc58127a	-0.013187999
81	0x3f2eb7a2	0.6824895
82	0xbf86d306	-1.0533149
83	0xbf006879	-0.5015941
84	0x3f1832ca	0.594525
85	0x3f772783	0.96544665
86	0x3ef260e4	0.47339547
87	0xbdf26e68	-0.118374646
88	0x3f253c21	0.64544874
89	0x3e75ca4c	0.24002951
90	0xbf6124b4	-0.8794663
91	0x3f2de094	0.67920804
92	0xbf05678d	-0.5211113
93	0x3d9f54ca	0.07779844
94	0xbf1d5ea5	-0.6147254
95	0x3f481d69	0.78169876
96	0x3e8740ce	0.2641663
97	0x3d286b92	0.041118212
98	0x3edd59b6	0.43232507
99	0x3e66e629	0.22548737
100	0xbf36bf86	-0.7138599
101	0xbf8ac37e	-1.084091
102	0x3e372784	0.17886168
103	0xbefb34b4	-0.49063647
104	0x3ef83ab5	0.4848229
105	0x3f152b63	0.5826933
106	0xbe0c2cff	-0.1368904
107	0x3f95d1ef	1.1704692
108	0x3ec33bae	0.3813147
109	0x3d4f8d97	0.05067214
110	0xbd0c0dcb	-0.03419284
111	0x3f0101df	0.5039348
112	0x3f044df0	0.51681423
113	0xbfc376f7	-1.527068
114	0xbe083888	-0.13302815
115	0xbfa22974	-1.26689
116	0x3ea868e6	0.3289253
117	0x3ec91c91	0.39279607
118	0xbeedc689	-0.46440533
119	0x3f1d231e	0.6138171

weight_ih_l1 f4 [120, 120]
0	0x3e653ea3	0.22387175
1	0xbeb82440	-0.35965157
2	0xbd2499f5	-0.040185887
3	0x3ecb83e8	0.39749074
4	0xbd9ed66f	-0.07755744
5	0x3c1c1949	0.009527513
6	0x3df61791	0.12016214
7	0x3ea0abc3	0.31381044
8	0x3dc58f08	0.09646422
9	0x3e4af1be	0.1981878
10	0x3e8972cf	0.26845405
11	0x3d071299	0.03297672
12	0xbc198c6f	-0.009371861
13	0xbebeffa4	-0.37304413
14	0xbe535623	-0.20638327
15	0x3c74902a	0.0149269495
16	0xbe93f196	-0.28895253
17	0xbdfcc4f7	-0.123422556
18	0xbeb7bf89	-0.35888317
19	0x3d2c3084	0.042038456
20	0x3e50c35a	0.2038702
21	0x3e24fe92	0.16112736
22	0x3e0ded4b	0.13860051
23	0x3dcedd9a	0.10100861
24	0xbd8c1591	-0.06840051
25	0xbce7c446	-0.028291833
26	0xbdce0719	-0.100599475
27	0x3dbe578c	0.09294042
28	0x3c33bd69	0.010970452
29	0x3d9eb7da	0.07749911
30	0xbd99f8ca	-0.07518156
31	0x3dee499c	0.116351336
32	0x3d75823d	0.059938658
33	0xbdb944bf	-0.090463154
34	0x3e6558e2	0.22397187
35	0xbee66407	-0.4499819
36	0x3d31e2dd	0.043429244
37	0x3ed0b058	0.4075954
38	0xbe83007c	-0.25586307
39	0x3ccd5da5	0.025069067
40	0x3d32fc87	0.04369786
41	0xbe892dfb	-0.26792893
42	0xbdd14617	-0.10218447
43	0x3e075f22	0.13219884
44	0x3e1ffdec	0.15624207
45	0x3e314438	0.1731118
46	0x3ccb12a2	0.024789158
47	0x3c2dcf60	0.010608524
48	0x3d8ed41e	0.06974052
49	0x3d8a5f2d	0.067564346
50	0x3c17f0dc	0.009273734
51	0xbdb36ff9	-0.087615915
52	0xbe052c80	-0.13005257
53	0x3d510308	0.05102828
54	0xbdff3a39	-0.12462277
55	0xbe02af80	-0.1276226
56	0x3d118eaa	0.035536446
57	0x3e469004	0.19390875
58	0xbe875348	-0.26430726
59	0xbe57bb8d	-0.21067639
60	0x3dfb6dc7	0.12276798
61	0xbd98b212	-0.07455839
62	0xbe2cec93	-0.16887121
63	0x3de0db1b	0.10979291
64	0xbe0314ce	-0.12800905
65	0xbd35dfe1	-0.04440296
66	0x3f2683c0	0.65044785
67	0x3cc0a9dd	0.023518497
68	0xbdb0f465	-0.086403646
69	0xbd75acc4	-0.059979215
70	0xbf00daa3	-0.50333613
71	0xbd1ec1ef	-0.03875917
72	0xbe6e69f9	-0.23282613
73	0x3e1aa9ff	0.15103911
74	0xbe36ba2b	-0.17844455
75	0x3ca17cee	0.019712891
76	0xbd6d19c0	-0.057885885
77	0xbd1ea079	-0.038727257
78	0x3e45630e	0.19276068
79	0x3d1e016f	0.038575586
80	0xbdd50a80	-0.10402393
81	0xbce63abf	-0.028104184
82	0xbdf4d8aa	-0.11955388
83	0x3d854d9c	0.065089434
84	0x3df9eee8	0.12203771
85	0xbc4803ce	-0.012207938
86	0xbdb96c0b	-0.09053811
87	0x3d6274ec	0.055287287
88	0x3de89f88	0.11358553
89	0x3e98122e	0.2970137
90	0xbcf37f5b	-0.029723814
91	0x3dd548fa	0.1041431
92	0xbdfb7af1	-0.122793086
93	0xbdbc4ced	-0.0919436
94	0x3b0d8b77	0.002159802
95	0x3e345f30	0.17614436
96	0x3e36c4cf	0.17848514
97	0x3e996d53	0.2996622
98	0x3a6d6efe	0.00090573716
99	0x3df7005f	0.12060618
100	0xbde001a1	-0.10937811
101	0xbcb8fa52	-0.0225803
102	0xbe04e730	-0.12978816
103	0x3df70f6c	0.12063488
104	0x3e93f7c0	0.28899956
105	0xbd71bee0	-0.059019923
106	0xbc4457be	-0.01198381
107	0x3bacfb6c	0.0052789953
108	0xbdcfa62b	-0.10139116
109	0xbc815e9c	-0.015792184
110	0x3ec14e7c	0.3775519
111	0xbb26f654	-0.0025476413
112	0x3e446e84	0.19182783
113	0xbc151a69	-0.009100535
114	0xbd7531aa	-0.059861816
115	0xbe039448	-0.12849534
116	0x3d5afb2a	0.053462185
117	0xbe0fb56f	-0.14034055
118	0xbe032fd4	-0.12811214
119	0x3eb78a71	0.3584781
120	0xbda1a24a	-0.07892282
121	0xbc5a0b93	-0.013308424
122	0x3da1c4d7	0.07898872
123	0xbd337509	-0.043812785
124	0xbdf6d1e9	-0.12051756
125	0x3e20faa3	0.1572061
126	0x3e9106cd	0.283255
127	0xbd6a918d	-0.057267714
128	0x3e1cb3b8	0.15302932
129	0xbe65bc43	-0.22435097
130	0x3cf970da	0.03044932
131	0x3d6407eb	0.055671614
132	0xbe4cba4d	-0.19992943
133	0xbd12ffeb	-0.035888594
134	0x3e41870e	0.18899176
135	0x3e7304cc	0.23732299
136	0xbd147e16	-0.036253057
137	0xbe00b7e6	-0.12570152
138	0xbe422692	-0.18960026
139	0xbe0b8fa3	-0.13629012
140	0x3cafda1e	0.021466311
141	0xbe7b144a	-0.24519458
142	0xbe13219f	-0.14368294
143	0xbe2c05bb	-0.16799061
144	0x3e4d8d5d	0.20073457
145	0xbca1011f	-0.019653855
146	0x3de3128d	0.11087523
147	0x3e17f346	0.14838895
148	0xbcc469cb	-0.023976227
149	0xbd441b69	-0.047877703
150	0xbe3cbf64	-0.18432385
151	0xbe0e1631	-0.13875653
152	0x3d7a049e	0.06103956
153	0x3e770ab2	0.24125174
154	0x3da43fcd	0.080199815
155	0xbe64b593	-0.2233489
156	0xbe70f920	-0.23532534
157	0xbb0a2ab8	-0.0021082591
158	0xbe5248ba	-0.20535555
159	0x3ec30f2b	0.3809751
160	0xbe45f981	-0.1933346
161	0xbd809ad0	-0.06279528
162	0xbe638b10	-0.22221017
163	0xbdb023d8	-0.08600587
164	0xbdb2363b	-0.0870175
165	0x3ca3d7f7	0.020000441
166	0x3dd0c483	0.10193732
167	0xbe215c69	-0.15757908
168	0xbe0f7c9d	-0.1401238
169	0xbe180570	-0.14845824
170	0xbe2e1df5	-0.17003615
171	0x3e01ceb1	0.12676503
172	0x3e99a209	0.30006436
173	0x3e154aea	0.14579359
174	0xbd9c06eb	-0.07618507
175	0x3d8270ff	0.063692085
176	0x3e4febb3	0.20304756
177	0x3ebc31c3	0.36756715
178	0x3e0e131a	0.13874474
179	0xbe931d43	-0.28733262
180	0x3e8db6b3	0.2767845
181	0x3da9404a	0.08264215
182	0x3dc61221	0.096714266
183	0xbe910026	-0.28320426
184	0x3e2af75f	0.16695927
185	0x3e05bcce	0.13060305
186	0x3c41093c	0.011781987
187	0x3e971754	0.29509985
188	0xbe56dc57	-0.2098249
189	0xbe010440	-0.12599277
190	0x3dd2bd5f	0.10290026
191	0x3de65fa3	0.1124871
192	0x3b1dc3ea	0.0024073073
193	0x3dacc5b7	0.084361486
194	0x3e3a02ab	0.1816508
195	0xbe173a87	-0.1476842
196	0x3dfb5ebd	0.12273929
197	0x3e4981d4	0.19678432
198	0x3da23e7d	0.07922075
199	0xbddd4dc9	-0.10805852
200	0x3df7ef42	0.12106182
201	0x3dda86a8	0.10670215
202	0xbe06945f	-0.13142537
203	0x3be925b4	0.0071150903
204	0xbdc13fd3	-0.09436002
205	0x3e10c927	0.14139234
206	0x3e09839f	0.13429116
207	0xbe966a72	-0.29378086
208	0xbd862208	-0.0654946
209	0xbdcbfc9f	-0.09960293
210	0xbe3cce19	-0.18437995
211	0x3ea75cf1	0.32688096
212	0x3e8ecc85	0.2789041
213	0x3d9e4da5	0.07729653
214	0xbb7c06e9	-0.0038456267
215	0x3e69d32e	0.22834465
216	0xbe3489ba	-0.17630664
217	0x3c28c151	0.0102999965
218	0x3df057ea	0.11735518
219	0xbe5d21e9	-0.21594967
220	0xbe53da40	-0.20688725
221	0xbe5f6d52	-0.21819046
222	0x3c1701b7	0.009216717
223	0x3d93c1a1	0.07214666
224	0xbe3fc2fd	-0.18726726
225	0x3dc42f61	0.09579349
226	0xbe526457	-0.20546089
227	0x3e2a2925	0.16617258
228	0x3e50241e	0.20326278
229	0x3e6d69d5	0.23184903
230	0x3c4760df	0.012169092
231	0x3da7de7f	0.08196735
232	0xbc8c6c96	-0.017141622
233	0xbe6d30bd	-0.23163123
234	0xbdcb57cf	-0.099288575
235	0xbe606278	-0.21912563
236	0x3e1dab79	0.15397443
237	0xbd14064c	-0.036138818
238	0xbe2eabb2	-0.17057684
239	0x3e0f88ee	0.14017078
240	0xbe068051	-0.13134886
241	0x3e1c6e92	0.15276554
242	0xbe4eb146	-0.20184812
243	0xbe32eded	-0.17473574
244	0x3d982059	0.07428045
245	0xbe1242fe	-0.14283368
246	0xbe39f5b4	-0.18160135
247	0xbe40fbb1	-0.18846013
248	0xbe4fbc4e	-0.20286676
249	0xbce23971	-0.02761528
250	0xbe2ea0c7	-0.17053519
251	0xbe5d83b6	-0.21632275
252	0x3dae7b99	0.08519668
253	0x3eb4ec47	0.35336515
254	0x3e61c2b7	0.22046934
255	0x3d43d3a9	0.047809277

weight_hh_l1 f4 [120, 120]
0	0x3d42c5d1	0.047551934
1	0xbe63151b	-0.2217602
2	0x3e1d8f45	0.15386684
3	0xbe2d6c26	-0.16935787
4	0xbdc25621	-0.09489084
5	0x3e886576	0.2663991
6	0xbe60917a	-0.21930495
7	0xbe06da49	-0.13169207
8	0xbdba50e6	-0.090974614
9	0x3e33b565	0.17549665
10	0xbe284be0	-0.16435194
11	0x3de6431d	0.112432696
12	0xbddebbea	-0.108756855
13	0xbdfbf078	-0.12301725
14	0xbdd84059	-0.10559148
15	0xbe3a17b4	-0.18173105
16	0xbe40f586	-0.1884366
17	0xbe3eb936	-0.1862534
18	0xbd75f64c	-0.06004934
19	0x3ce6e705	0.02818633
20	0xbc978652	-0.018496666
21	0x3dc0a09b	0.09405633
22	0x3e96ffd1	0.29492047
23	0x3e0c7f74	0.13720495
24	0xbd3cbd31	-0.046078864
25	0x3cfe802c	0.031066976
26	0xbdd6b54c	-0.104837984
27	0x3e5725ac	0.21010464
28	0xbdd447f6	-0.10365288
29	0x3e898c71	0.2686496
30	0x3e7bbcf0	0.24583793
31	0x3e4f3ae3	0.20237307
32	0x3d4c968a	0.049948253
33	0xbe0da04e	-0.13830683
34	0xbd19448f	-0.0374189
35	0x3d76bbd0	0.060237706
36	0x3dc1d5dc	0.094646186
37	0xbe02778a	-0.12740913
38	0x3e8c36d7	0.2738559
39	0x3de76ecb	0.11300429
40	0x3cd56e65	0.026053617
41	0x3c4c6d3c	0.012477215
42	0xbc52b3cf	-0.0128602525
43	0xbda04dbe	-0.07827328
44	0xbdda50da	-0.106599525
45	0xbe862809	-0.2620242
46	0xbe1647fb	-0.14675896
47	0xbe8724e5	-0.26395336
48	0x3e0f69a0	0.14005136
49	0xbe0fc6f6	-0.14040741
50	0xbdaa3a2d	-0.083118774
51	0xbde09732	-0.10966338
52	0x3e3cca9b	0.18436663
53	0x3e295b6e	0.16538784
54	0xbe601cdf	-0.21886013
55	0x3d7f5845	0.06234004
56	0xbdb8e109	-0.09027297
57	0xbda84972	-0.082171336
58	0xbd9ec45a	-0.07752295
59	0x3ccfacf2	0.025351021
60	0x3d983880	0.074326515
61	0xbe1a3c06	-0.1506196
62	0x3e838eaf	0.25694796
63	0x3dba3177	0.09091466
64	0xbd8073d6	-0.06272094
65	0x3e025492	0.12727574
66	0xbdec341a	-0.11533375
67	0xbe2c6639	-0.1683587
68	0xbe261789	-0.16219915
69	0x3de7666a	0.11298831
70	0x3e42ac09	0.19010939
71	0x3e08c931	0.13357998
72	0x3e70ef83	0.23528866
73	0xbe6eaecb	-0.23308866
74	0xbcbfd0d2	-0.023415003
75	0x3dc38f4e	0.095488176
76	0x3e7e19f0	0.24814582
77	0x3c81a63d	0.015826339
78	0xbd0b8dfa	-0.034070946
79	0x3e3bb03a	0.18328944
80	0x3d63159c	0.05544053
81	0x3e5ae73b	0.2137727
82	0xbb0408bd	-0.002014681
83	0x3e01816c	0.12647027
84	0xbd1a6447	-0.03769329
85	0xbbd264de	-0.0064207157
86	0xbcdf0c00	-0.027227402
87	0x3d146490	0.036228716
88	0xbe54544e	-0.20735285
89	0xbe8e3941	-0.27778056
90	0xbe73cd58	-0.23808801
91	0x3cadfb59	0.021238016
92	0xbdba190d	-0.09086809
93	0x3e3b1ec6	0.18273458
94	0x3e5a6ec8	0.21331322
95	0xbcbcb416	-0.02303509
96	0xbe035636	-0.12825856
97	0xbd9f3b4d	-0.077749826
98	0xbdcf1412	-0.1011125
99	0x3e8502ce	0.25978702
100	0xbe4216a0	-0.18953943
101	0xbe2321bb	-0.15930836
102	0xbdcb5044	-0.09927419
103	0x3e71de51	0.23619963
104	0xbe01b4eb	-0.12666671
105	0xbe439d90	-0.19103074
106	0x3e95dde7	0.2927086
107	0x3d1bfc66	0.038082503
108	0x3deeaee1	0.11654449
109	0xbd278e0f	-0.040906962
110	0xbe217e49	-0.1577083
111	0xbe247974	-0.16061956
112	0x3a919810	0.001110794
113	0x3e76b518	0.2409252
114	0xbe8fc8e7	-0.28082964
115	0xbdfeb768	-0.12437326
116	0xbe0d60c4	-0.13806444
117	0xbd8d5784	-0.06901458
118	0xbe2e882b	-0.17044131
119	0x3d0fa74c	0.035071656
120	0xbcd8dc66	-0.026472282
121	0xbd920fe4	-0.07131937
122	0xbe98bec8	-0.29833055
123	0x3c81ee6c	0.015860759
124	0xbc9e8281	-0.019349338
125	0x3d6927a4	0.05692257
126	0x3cc54232	0.024079416
127	0x3cc2ccf1	0.023779364
128	0xbd39ed0b	-0.045392077
129	0xbdd4cdcc	-0.10390815
130	0x3aa5a64b	0.001263806
131	0x3dabad84	0.08382705
132	0xbcbe5500	-0.02323389
133	0xbdc459f9	-0.095874734
134	0x3e11380f	0.14181541
135	0x3d2a2e8b	0.041548293
136	0x3e955b9f	0.29171464
137	0x3dbee3c7	0.09320789
138	0x3d4c6fe7	0.049911406
139	0xbe3793fc	-0.17927545
140	0x3da5b627	0.080913834
141	0x3e2feca9	0.17180122
142	0x3a4a5ae8	0.00077192346
143	0x3d3f3c86	0.04668858
144	0xbdaec79b	-0.085341655
145	0xbc575c6b	-0.013144593
146	0x3e040699	0.12893142
147	0xbd23ed02	-0.04002095
148	0xbce0acf8	-0.027426228
149	0x3cf00296	0.029298108
150	0x3d28138d	0.04103427
151	0x3c8cf161	0.017204942
152	0xbc85f586	-0.016352426
153	0x3d11ad62	0.03556574
154	0x3d712e42	0.058882006
155	0x3c3dcf11	0.011585013
156	0x3d8d1989	0.06889636
157	0xbd47a52d	-0.04874151
158	0x3e14e0a5	0.1453882
159	0xbe3edbd0	-0.1863854
160	0xbd415589	-0.047200713
161	0x3deb43a6	0.11487512
162	0x3df4130f	0.11917698
163	0xbddf5c4d	-0.10906277
164	0x3ca2f673	0.019892907
165	0x3d145580	0.03621435
166	0x3baa0cfc	0.005189536
167	0x3db62654	0.08894029
168	0xbd8a9283	-0.06766226
169	0x3df2bc07	0.118522696
170	0x3df275de	0.11838888
171	0x3cf9342c	0.030420385
172	0xbd2cfe2d	-0.04223459
173	0x3dd54dc2	0.10415222
174	0xbdee7d5b	-0.116450034
175	0xbdb286fe	-0.08717154
176	0xbd8c1192	-0.06839289
177	0x3e31e8ee	0.17374012
178	0x3d5815ee	0.05275529
179	0xbe18e621	-0.14931537
180	0x3e085293	0.1331275
181	0x3e4e814f	0.20166515
182	0x3ceadbc0	0.028669238
183	0x3d6e130d	0.058123637
184	0xbd6144e7	-0.05499735
185	0xbdc24720	-0.09486222
186	0x3d834262	0.06409146
187	0x3e54354c	0.20723456
188	0xbd84a634	-0.06477013
189	0x3ccb1c8a	0.024793882
190	0xbc1c9f91	-0.009559528
191	0x3c20fd77	0.009826056
192	0x3dc30484	0.09522346
193	0x3d7f1211	0.06227309
194	0x3dc6fefa	0.09716602
195	0xbd25a5dd	-0.040441383
196	0xbbe70d30	-0.0070511326
197	0xbe39e8d7	-0.18155228
198	0x3d801815	0.06254593
199	0x3cf1ca0c	0.029515289
200	0xbcc2aee5	-0.023765037
201	0xbd0b5264	-0.03401412
202	0xbde1dac3	-0.110280536
203	0xbdadb63c	-0.08482024
204	0xbddb2730	-0.10700834
205	0x3c8e3cc6	0.017362963
206	0xbcaf273d	-0.021381015
207	0xbc8f3557	-0.01748149
208	0xbd28fceb	-0.041256826
209	0xbd1a85cd	-0.03772526
210	0x3e269d0d	0.16270848
211	0xbe01ea3c	-0.1268701
212	0xbdad2639	-0.08454556
213	0xbe5d4f27	-0.21612225
214	0x3d2c7b04	0.042109504
215	0xbdf2fd4c	-0.11864719
216	0x3e1dd8e4	0.15414768
217	0x3e98b977	0.29828998
218	0x3d84db5d	0.06487153
219	0xbe18af7d	-0.14910693
220	0x3d661aa5	0.056177754
221	0x3d5d9f8f	0.054107245
222	0xbd9be44f	-0.07611906
223	0xbc6a8e09	-0.01431609
224	0x3d5f4fad	0.054519344
225	0x3d6903fc	0.056888565
226	0x3d982dee	0.074306354
227	0xbdb61e33	-0.08892479
228	0xbc5338e7	-0.012891985
229	0x3dced006	0.10098271
230	0x3c852b42	0.016255978
231	0x3d50b816	0.050956808
232	0x3e178fe8	0.1480099
233	0xbe96b4cc	-0.29434812
234	0xbce24179	-0.02761911
235	0xbdb11e50	-0.0864836
236	0x3d920575	0.07129947
237	0x3c54b562	0.012982698
238	0x3dbb5e5e	0.091488585
239	0x3d66c52c	0.05634038
240	0x3db8288b	0.08992108
241	0xbdd4c947	-0.10389953
242	0x3d29b968	0.041436583
243	0xbd40a690	-0.047033846
244	0x3d3bcf0a	0.045851745
245	0xbe55dbff	-0.20884703
246	0xbcbe40da	-0.023224283
247	0xbd1110e6	-0.035416506
248	0xbdb41a94	-0.08794132
249	0x3d9ea176	0.0774564
250	0x3d8c61f1	0.06854618
251	0x3d7c3db9	0.0615823
252	0xbd948dad	-0.07253585
253	0xbd62939a	-0.055316545
254	0xbdca2d3a	-0.098719075
255	0xbdb3e70b	-0.08784302

bias_ih_l1 f4 [120]
0	0x3e29e48c	0.1659109
1	0x3e2c798a	0.16843238
2	0xbeb005e1	-0.34379485
3	0x3dd1acb6	0.1023802
4	0x3d1d00d9	0.038330887
5	0xbe7ebb0c	-0.2487604
6	0xbd41f850	-0.04735595
7	0x3e6fd329	0.23420395
8	0xbda67633	-0.081280135
9	0xbde42844	-0.111404926
10	0x3dc095ef	0.094035976
11	0x3d888cca	0.066674784
12	0x3f0f878f	0.5606622
13	0xbcc7ac16	-0.02437405
14	0x3e27b865	0.16378935
15	0x3cfc4469	0.03079434
16	0x3ec50046	0.3847677
17	0x3d97dab5	0.07414762
18	0xbe0d99a5	-0.13828142
19	0xbcb9b5b6	-0.022669654
20	0xbcfc6df0	-0.030814141
21	0xbb00334c	-0.0019561825
22	0x3baa8131	0.005203389
23	0x3d526266	0.05136337
24	0x3d9db37c	0.077002496
25	0xbe72c159	-0.23706569
26	0x3e2e7218	0.17035711
27	0x3cbc759d	0.023005301
28	0x3ebf0ea2	0.3731585
29	0xbd7e1df6	-0.06204029
30	0xbcaf7398	-0.021417424
31	0x3e074b95	0.13212426
32	0x3e70f1d3	0.23529749
33	0x3e6fcff5	0.23419173
34	0xbd127a13	-0.03576095
35	0xbe8b0fef	-0.27160594
36	0xbe497b3a	-0.19675913
37	0x3ee7fd83	0.45310602
38	0xbe11f280	-0.14252663
39	0x3eb717e1	0.35760406
40	0x3e3ecaae	0.18632004
41	0x3e514366	0.20435867
42	0x3e3e6ff6	0.18597397
43	0xbe7c9cbf	-0.24669169
44	0xbe14ffdd	-0.14550729
45	0x3e09d771	0.1346109
46	0x3bb258d7	0.0054427194
47	0x3d91cb27	0.07118826
48	0xbe94f347	-0.29091856
49	0x3c6d2b1f	0.014475613
50	0x3e819d78	0.25315452
51	0xbce3c3ec	-0.027803384
52	0xbdafca56	-0.085835144
53	0x3da4958e	0.08036338
54	0x3e0aebe7	0.13566552
55	0xbecf74ff	-0.40518948
56	0xbdc2d589	-0.09513385
57	0x3d06df6f	0.032927927
58	0x3e1d1ae6	0.15342292
59	0xbea4567a	-0.32097226
60	0xbe5f545e	-0.21809527
61	0x3eac4a61	0.33650497
62	0x3d8978ea	0.06712516
63	0x3e1b35cc	0.1515724
64	0x3e4fb0c4	0.20282274
65	0xbe10f9c3	-0.14157777
66	0xbd1668f9	-0.036721203
67	0x3df68ab9	0.12038178
68	0x3da5bc06	0.08092503
69	0xbd94b09a	-0.072602466
70	0xbe55d3ab	-0.20881526
71	0xbdc30458	-0.09522313
72	0xbc539290	-0.012913361
73	0x3ebb6cc1	0.3660641
74	0x3e0dad8d	0.13835736
75	0xbefbd936	-0.49189156
76	0xbd6d5e16	-0.057951055
77	0xbe854072	-0.2602573
78	0xbd23d8ad	-0.04000156
79	0xbc94b934	-0.018154718
80	0xbee2325d	-0.4417905
81	0xbc1a6c92	-0.009425299
82	0xbe82f735	-0.2557923
83	0xbe977872	-0.2958408
84	0xbe60a9c5	-0.21939762
85	0x3cee74ae	0.029108372
86	0xbe34e9ae	-0.17667267
87	0x3e125fd3	0.14294367
88	0x3e862665	0.26201168
89	0x3e45397f	0.19260214
90	0xb84a8e8c	-4.829331e-05
91	0xbdf006b0	-0.117200255
92	0x3e742290	0.2384131
93	0xbe34c354	-0.17652637
94	0xbd15125b	-0.03639446
95	0xbd5f7abd	-0.05456041
96	0x3e411a63	0.18857722
97	0xbc01a848	-0.0079136565
98	0x3d721f17	0.05911168
99	0xbe105734	-0.14095765
100	0xbce9295e	-0.028462108
101	0x3dc9ed66	0.09859733
102	0x3d8889d8	0.066669166
103	0xbd3115c9	-0.043233667
104	0x3e238937	0.15970312
105	0x3e371803	0.17880253
106	0xbdf26ec1	-0.11837531
107	0xbe5e84e6	-0.21730384
108	0x3e1760fe	0.14783093
109	0x3e9eb6e6	0.30998915
110	0x3e8710b5	0.26379934
111	0x3e865899	0.2623947
112	0x3cf708ff	0.030155657
113	0xbda62386	-0.08112244
114	0xbcc5f65e	-0.024165329
115	0xbd4f4773	-0.05060525
116	0x3e148acf	0.14506076
117	0x3deeee5b	0.116665564
118	0xbde44bb3	-0.11147251
119	0x3e69eac9	0.2284347

bias_hh_l1 f4 [120]
0	0x3e278924	0.16360909
1	0x3ea2c30d	0.31789437
2	0xbed844fe	-0.42240137
3	0x3acaa4f6	0.0015460539
4	0x3becd6cf	0.0072277556
5	0xbe9f2d26	-0.31089133
6	0x3d973bf6	0.073844835
7	0x3e6e8f7b	0.23296921
8	0xbbf0a4aa	-0.0073438482
9	0xbd99477e	-0.07484339
10	0x3deef539	0.11667866
11	0xbb112ac0	-0.0022150725
12	0x3eda974c	0.42693555
13	0xbc8c5a8c	-0.01713302
14	0x3e069715	0.1314357
15	0xbc9422b5	-0.018082956
16	0x3efb7a52	0.4911676
17	0x3cb04abe	0.021520015
18	0xbe15c6a7	-0.14626561
19	0xbddf8fab	-0.10916074
20	0x3ca00d8d	0.019537712
21	0x3e09a65c	0.13442367
22	0x3d18103d	0.03712486
23	0xbd8cc28c	-0.06873044
24	0x3dae2903	0.08503916
25	0xbe056cad	-0.13029738
26	0x3ea10ec0	0.31456566
27	0x3dcad4af	0.099038474
28	0x3ed842e4	0.42238533
29	0xbcbec1bc	-0.02328574
30	0x3d0917ee	0.033470087
31	0x3cf94bc0	0.030431628
32	0x3e1ca4d8	0.15297258
33	0x3eb3d873	0.35126075
34	0xbdee49c5	-0.11635164
35	0xbe8cd1bc	-0.27503765
36	0xbe29bc09	-0.16575636
37	0x3eb80ec5	0.35948768
38	0xbe51febc	-0.2050733
39	0x3e69f48f	0.22847198
40	0x3e1ecdb6	0.1550816
41	0x3dbe80b2	0.093018904
42	0x3e33ef22	0.1757169
43	0xbe60daf7	-0.21958528
44	0xbe5663f7	-0.20936571
45	0x3e49726e	0.19672558
46	0x3d45bd05	0.048275966
47	0x3d491563	0.04909266
48	0xbe1e06f1	-0.15432335
49	0xbd9cb623	-0.07651927
50	0x3e21e4a2	0.15809873
51	0x3bf6b8c4	0.00752935
52	0xbd84d73a	-0.06486364
53	0xbdb3e79e	-0.08784412
54	0x3d8aa1ec	0.067691654
55	0xbeb14483	-0.34622583
56	0xbcc139c7	-0.02358712
57	0x3dff6688	0.12470728
58	0x3e43a01a	0.19104043
59	0xbe3f9b49	-0.1871158
60	0xbe16137c	-0.1465587
61	0x3e80d64a	0.2516349
62	0x3dc1e037	0.09466594
63	0x3e760f9e	0.24029395
64	0x3db117fb	0.08647152
65	0xbd56468b	-0.05231337
66	0xbd33a917	-0.04386243
67	0x3e248138	0.16064918
68	0x3b30e2b6	0.00269906
69	0xbd97de62	-0.07415463
70	0xbe6e8b5d	-0.2329535
71	0xbe32fdbd	-0.17479606
72	0xbd8dcb6e	-0.06923567
73	0x3ec15fc5	0.3776838
74	0x3e1e6a09	0.15470137
75	0xbeda6462	-0.4265471
76	0x3c5c1d28	0.013434686
77	0xbe225774	-0.15853673
78	0xbc814418	-0.01577954
79	0xbdbaa3ca	-0.091132715
80	0xbee8c8c1	-0.45465663
81	0xbd001d87	-0.03127816
82	0xbe4597c7	-0.1929618
83	0xbe9285d3	-0.28617725
84	0xbe282b09	-0.16422667
85	0x3d86f545	0.0658975
86	0xbd82178f	-0.0635215
87	0x3ddea316	0.1087095
88	0x3eb06870	0.3445468
89	0x3e425f70	0.18981719
90	0xbcd86684	-0.02641607
91	0xbdcb16c2	-0.0991645
92	0x3e71ad40	0.23601246
93	0xbe17e654	-0.14833957
94	0xbd2cd111	-0.04219157
95	0xbd505ce4	-0.050869837
96	0x3e5fc1ff	0.21851347
97	0xbd80ecba	-0.06295152
98	0xbc9a1dca	-0.018813033
99	0xbe259336	-0.16169438
100	0xbd048891	-0.032356802
101	0x3e36874d	0.1782505
102	0x3c7dbd7a	0.015487069
103	0x3a80393b	0.0009782681
104	0x3d566a12	0.05234725
105	0x3c743077	0.014904133
106	0xbcc9d489	-0.024637477
107	0xbe19edf0	-0.15032172
108	0x3db3dd9c	0.08782503
109	0x3e973c24	0.2953807
110	0x3eb9ae07	0.36265585
111	0x3e8bc6ea	0.27300197
112	0xbd60f4c1	-0.054920916
113	0xbdc949b6	-0.09828512
114	0xbd8084e6	-0.06275348
115	0xbd368ed6	-0.044569813
116	0x3d435320	0.047686696
117	0x3d1e5f76	0.038665257
118	0xbde43c61	-0.11144329
119	0x3e4d6d6f	0.20061277

weight f4 [1, 120]
0	0x3c33ddac	0.010978144
1	0x3d7774e6	0.060414217
2	0x3d66cf1d	0.056349862
3	0x3db5c0fe	0.08874701
4	0x3d2138a7	0.03936067
5	0xbe5e3b10	-0.21702218
6	0xbd2c0e9f	-0.04200613
7	0xbdd38b9a	-0.10329361
8	0xbca1ded8	-0.01975958
9	0xbca7735d	-0.020440752
10	0x3d12836a	0.035769857
11	0xbbd5b5e9	-0.0065219295
12	0xbe5145e8	-0.20436823
13	0xbdffc696	-0.12489049
14	0x3d840d13	0.06447806
15	0xbbd09fe5	-0.006366717
16	0xbc2d455b	-0.010575618
17	0x3d8b2b74	0.067953974
18	0xbd064cf5	-0.032788236
19	0x3d56b4f0	0.05241865
20	0x3d33ae2e	0.043867283
21	0xbd70c993	-0.058785986
22	0x3d720398	0.05908546
23	0xbc147e5d	-0.0090633305
24	0x3ce34db7	0.027747018
25	0x3c74be43	0.01493794
26	0xbcac98bd	-0.021068925
27	0x3d2811b5	0.04103251
28	0xbd8ff90b	-0.07029923
29	0xbb5f0f86	-0.0034036352
30	0x3d63bc25	0.05559935
31	0x3b058afd	0.0020377033
32	0x3b0ec77b	0.002178638
33	0xbdc5f08b	-0.096650206
34	0x3e54089b	0.20706408
35	0xbaed8a3c	-0.0018122862
36	0x3d328405	0.043582935
37	0x3e611f48	0.21984589
38	0xbd8a1998	-0.06743163
39	0x3b8f8962	0.004380391
40	0x3cad5520	0.021158755
41	0x3dd1b483	0.10239508
42	0x3d185bcf	0.03719693
43	0xbb8f82a5	-0.0043795877
44	0x3ca8f151	0.020622881
45	0xbbeedcc4	-0.007289501
46	0x3d9a0358	0.07520169
47	0x3d78f137	0.060776915
48	0xbcd1ae8c	-0.025595926
49	0x3cd22953	0.02565447
50	0xbdf3370f	-0.11875736
51	0x3cf0dfee	0.029403653
52	0xbd98ee81	-0.07467366
53	0xbbce826d	-0.006302169
54	0x3c4e9661	0.012609095
55	0x3cc0d36d	0.023538316
56	0xbc8eea0e	-0.01744559
57	0x3bb975cd	0.005659795
58	0x3da97419	0.08274097
59	0x3a0a2c7a	0.000527091
60	0xbab4b3d5	-0.0013786504
61	0x3d452f9a	0.0481411
62	0xbc82a1e6	-0.01594634
63	0x3d2425eb	0.040075224
64	0xbc93845a	-0.018007446
65	0x3d38223e	0.04495453
66	0x3ca83e26	0.020537447
67	0x3bb2e80f	0.0054597924
68	0xbc89242f	-0.016740886
69	0x3d3f4e9b	0.046705823
70	0x3c8feeaa	0.017569859
71	0x3c274cab	0.01021115
72	0xbd4ec147	-0.050477292
73	0xbdf95743	-0.12174847
74	0xbd2209a9	-0.039559994
75	0xbe5ebd6e	-0.21751949
76	0xbd180c86	-0.03712132
77	0x3cd49bae	0.02595314
78	0xbd9ea0e1	-0.07745529
79	0xbda1647c	-0.07880494
80	0x3d4cf966	0.050042532
81	0xbd00ed5c	-0.031476364
82	0x3e60363f	0.21895693
83	0x3ccf902d	0.025337303
84	0x3b835514	0.004007945
85	0xbd5d8c2d	-0.05408876
86	0x3c12ee07	0.008967883
87	0xbb950121	-0.0045472537
88	0xbd7f034d	-0.062259007
89	0x39952706	0.0002844857
90	0xbcee8cdf	-0.029119907
91	0xbc7c10e9	-0.015384891
92	0x3bded7e8	0.0068006404
93	0xbbf5554e	-0.0074869758
94	0x3b777c6d	0.0037763373
95	0x3d76fd84	0.060300365
96	0x3d0880e6	0.033326052
97	0xbd8948f5	-0.067033686
98	0xbdc3bd3a	-0.095575765
99	0x3d757ff3	0.059936475
100	0xbd048e96	-0.032362543
101	0xbd6a6b61	-0.05723131
102	0x3d70e35e	0.058810584
103	0x3c6edbb3	0.014578748
104	0xbdb7e0d0	-0.089784265
105	0xbd47bdc2	-0.04876495
106	0x3c0ccbc1	0.008593501
107	0x3d834868	0.06410295
108	0x3ce91b9f	0.028455554
109	0xbdaf4966	-0.085589215
110	0xbc42a51b	-0.0118801845
111	0x3e0abf4d	0.13549538
112	0xbe5797f9	-0.21054067
113	0x3d6bb7ad	0.057548214
114	0xbd3fc85d	-0.04682194
115	0xbdad385b	-0.084580146
116	0xbd605fe1	-0.054778937
117	0x3cd9e8d7	0.026600285
118	0x3d3f609a	0.046722986
119	0xbe5f0f6f	-0.21783231
