PrimeModel.pth (torch, 4198 bytes, 5 tensors)

weight f4 [6, 2]
0	0x3f2f3f2b	0.6845576
1	0xbf8ca31d	-1.0987278
2	0xbef742b7	-0.48293087
3	0xbf4f2ab1	-0.80924517
4	0xbefc6905	-0.49298874
5	0xbeb44ed4	-0.3521639
6	0xbb1f7304	-0.002433003
7	0x3e4489f5	0.19193251
8	0xbda8b280	-0.08237171
9	0x3d9a2e20	0.07528329
10	0x3db5ac94	0.08870807
11	0x3f25df50	0.6479387

bias f4 [6]
0	0x3ee93b81	0.4555321
1	0xbf3f6d77	-0.74776405
2	0x3e927262	0.28602892
3	0xbf0da3c8	-0.55328035
4	0xbec1233d	-0.37722197
5	0x3f426f56	0.75951135

weight f4 [3, 6]
0	0x3f0c33c2	0.54766476
1	0x3f525e90	0.8217554
2	0xbe547803	-0.20748906
3	0x3e8645b0	0.26225042
4	0x3e90e0f8	0.28296638
5	0xbdb0c68f	-0.08631622
6	0xbe774627	-0.24147855
7	0xbe973d50	-0.29538965
8	0x3e9f8282	0.31154257
9	0xbec6cef4	-0.38829768
10	0xbebb971f	-0.36638734
11	0x3f516f35	0.81810313
12	0x3ef66a2d	0.4812788
13	0x3e5f186e	0.21786663
14	0xbeff22ff	-0.49831387
15	0x3d230349	0.039798055
16	0x3e4e9dfc	0.20177454
17	0x3dc809f3	0.09767523

bias f4 [3]
0	0x3e890c61	0.26767257
1	0xbc754293	-0.014969486
2	0x3ea9f7e2	0.33196932

weight f4 [1, 3]
0	0xbf26ea45	-0.65201217
1	0x3f5d0ade	0.86344707
2	0xbe8760e0	-0.26441097
