Short-haul 40Gbaud Systems/Modelos_Grid_Search/Modelo62.pth (torch, 4114 bytes, 5 tensors)

weight f4 [6, 2]
0.77045363 -0.861583 -0.4657 -0.5616708 -0.5633939 -0.02676975 0.060739905 -0.8308922
-0.5604632 -0.6650498 0.108420454 0.22876279
00000000: 733c 453f b490 5cbf 3b70 eebe a8c9 0fbf
00000010: 953a 10bf 3c4c dbbc 68ca 783d 5ab5 54bf
00000020: 847a 0fbf b440 2abf 8b0b de3d cb40 6a3e

bias f4 [6]
0.070031665 -0.12755337 0.025002431 1.2089931 -0.17228727 -0.5892126
00000000: c36c 8f3d 5a9d 02be e6d1 cc3c 49c0 9a3f
00000010: 136c 30be a3d6 16bf

weight f4 [2, 6]
-0.08774318 0.38062763 -0.04243488 0.63977987 0.028304925 -0.1583203 0.36098188 0.07283118
-0.06513101 0.7840063 -0.30989128 0.11511681
00000000: b2b2 b3bd a0e1 c23e 32d0 2dbd 9dc8 233f
00000010: bbdf e73c b71e 22be 9ed2 b83e 8428 953d
00000020: 6863 85bd a3b4 483f 12aa 9ebe 5dc2 eb3d

bias f4 [2]
-0.00061388133 -0.00039889014
00000000: e1ec 20ba 2122 d1b9

weight f4 [1, 2]
-0.8104009 -0.7052808
00000000: 6f76 4fbf 488d 34bf
