Short-haul 40Gbaud Systems/Modelos_Grid_Search/Modelo33.pth (torch, 4114 bytes, 5 tensors)

weight f4 [3, 2]
-0.08268424 0.6934617 0.063644454 -0.6946301 0.3001656 -0.31806892
00000000: 5b56 a9bd b586 313f 0658 823d 47d3 31bf
00000010: 4eaf 993e eed9 a2be

bias f4 [3]
0.968994 1.0391891 0.07014656
00000000: fe0f 783f 2604 853f 00a9 8f3d

weight f4 [3, 3]
0.13399705 -0.16071993 -0.6335367 0.5499089 -0.60514295 -0.21216136 0.15988258 -0.4140525
0.0038227309
00000000: 8636 093e c493 24be 762f 22bf d4c6 0c3f
00000010: a6ea 1abf d440 59be 42b8 233e b0fe d3be
00000020: c886 7a3b

bias f4 [3]
-0.2701057 1.2704209 -0.3225944
00000000: 4b4b 8abe 279d a23f 182b a5be

weight f4 [1, 3]
-0.23497595 1.2064346 -0.80323404
00000000: 899d 70be 736c 9a3f bfa0 4dbf
