Short-haul 40Gbaud Systems/Modelos_Grid_Search/Modelo54.pth (torch, 4178 bytes, 5 tensors)

weight f4 [5, 2]
0	0xbd956ce5	-0.072961606
1	0x3f002b2c	0.50065875
2	0xbf031743	-0.5120737
3	0x3f110798	0.5665221
4	0x3f398e8e	0.72483146
5	0xbe60d05e	-0.21954486
6	0x3ea3aec1	0.31969264
7	0x3e942293	0.28932628
8	0xbe198498	-0.14991987
9	0x3f61059c	0.87899184

bias f4 [5]
0	0x3f2ec09e	0.6826266
1	0x3de0beb4	0.10973874
2	0xbf151a80	-0.5824356
3	0x3dea108b	0.114289366
4	0x3f96a987	1.1770486

weight f4 [4, 5]
0	0x3f384cea	0.7199236
1	0xbecefb07	-0.40425894
2	0xbe8526d6	-0.26006192
3	0x3d301bd6	0.042995296
4	0x3f21e1c3	0.6323511
5	0x3ddcdb89	0.107840605
6	0x3dc1cb06	0.09462552
7	0xbe0066f4	-0.12539274
8	0x3ebdb32c	0.3705076
9	0x3f14a103	0.58058184
10	0x3f601726	0.8753532
11	0x3edcf204	0.43153393
12	0xbe1821e9	-0.14856686
13	0x3e395ea9	0.18102516
14	0x3d8a2e9d	0.06747172
15	0x3e667085	0.2250386
16	0xbd03b566	-0.032155417
17	0xbd2d0059	-0.04223666
18	0x3d8bce13	0.06826415
19	0xbd96ee05	-0.073696174

bias f4 [4]
0	0xb9fd5f0c	-0.00048326736
1	0xba4da7ba	-0.00078451226
2	0xbb145a76	-0.0022636927
3	0xbe49e79a	-0.19717255

weight f4 [1, 4]
0	0x3ee8f412	0.4549871
1	0x3ee630ea	0.44959193
2	0x3f000130	0.5000181
3	0xbdf083a2	-0.11743857
