Short-haul 40Gbaud Systems/Modelos_Grid_Search/Modelo15.pth (torch, 4114 bytes, 4 tensors)

weight f4 [1, 2]
00000000: 20ad afbd 32e9 193f
-0.08577943 0.6012145

weight f4 [5, 1]
00000000: 523a 10bf 04d8 9c3f a3c4 153f f057 553f
00000010: 8482 bcbe
-0.5633899 1.2253423 0.5850317 0.83337307 -0.36818326

bias f4 [5]
00000000: 486e 7e3f 0c4b bcba 0085 8cba 787e 643e
00000010: 5dac 3d3f
0.99387026 -0.0014365627 -0.001072079 0.22313869 0.7409113

weight f4 [1, 5]
00000000: 96ea 53bf 4e67 453f 238d b63e 0628 063d
00000010: dc1c cbbd
-0.82779825 0.77110755 0.35654554 0.032753013 -0.09917614
