Short-haul 40Gbaud Systems/Modelos_Grid_Search/Modelo56.pth (torch, 4178 bytes, 5 tensors)

weight f4 [5, 2]
-0.08616686 0.66049814 -0.18546598 0.8471585 -0.13125278 0.75139827 0.12458769 -0.9344738
0.5647581 0.19040391
00000000: 4078 b0bd 6816 293f cbea 3dbe 61df 583f
00000010: 2167 06be a35b 403f d527 ff3d ad39 6fbf
00000020: fd93 103f 3ef9 423e

bias f4 [5]
-0.50090706 0.38091522 1.0506122 0.61556965 -0.030976595
00000000: 723b 00bf 5207 c33e 767a 863f f995 1d3f
00000010: a1c2 fdbc

weight f4 [6, 5]
-0.6255664 0.5026169 -0.5879088 0.57350504 0.43266636 0.42109776 0.039340183 0.6437161
0.075145274 0.10393541 0.68713903 0.011718162 0.4335448 0.17510168 0.17900795 0.2803926
-0.45724577 -0.14900568 0.15522516 -0.19189288 0.5711436 0.31138843 0.38474366 0.033676654
0.13663627 0.5706054 -0.12582262 0.11293848 -0.2606476 0.2196223
00000000: 1f25 20bf 80ab 003f 3181 16bf 3ad1 123f
00000010: 7286 dd3e 209a d73e 2c23 213d 94ca 243f
00000020: c4e5 993d 17dc d43d 58e8 2f3f 89fd 3f3c
00000030: 96f9 dd3e db4d 333e dc4d 373e 9e8f 8f3e
00000040: 1e1c eabe f294 18be 58f3 1e3e 917f 44be
00000050: 7836 123f 4e6e 9f3e 1ffd c43e 88f0 093d
00000060: 61ea 0b3e 3213 123f a5d7 00be 4a4c e73d
00000070: 9a73 85be abe4 603e

bias f4 [6]
0.39511928 -0.14233874 -0.33372793 -0.30902055 -0.06213026 0.5202586
00000000: 134d ca3e 3fc1 11be 63de aabe f137 9ebe
00000010: 4d7c 7ebd ab2f 053f

weight f4 [1, 6]
-0.7067364 0.24349226 0.2675957 0.14450681 0.4861393 0.5803692
00000000: adec 34bf 0956 793e 4e02 893e 98f9 133e
00000010: 40e7 f83e 1393 143f
