Short-haul 40Gbaud Systems/Modelos_Grid_Search/Modelo52.pth (torch, 4114 bytes, 5 tensors)

weight f4 [5, 2]
0.08449397 -0.43118545 -0.037349783 0.8549237 0.26046258 -0.55565834 0.0023060264 0.5604054
0.088439606 -1.2512897
00000000: 2d0b ad3d 57c4 dcbe 16fc 18bd 48dc 5a3f
00000010: 5a5b 853e a03f 0ebf b420 173b ba76 0f3f
00000020: d31f b53d 432a a0bf

bias f4 [5]
-0.6053327 -0.296149 0.7157698 0.2981008 -0.038966984
00000000: 15f7 1abf d7a0 97be b13c 373f aba0 983e
00000010: d89b 1fbd

weight f4 [2, 5]
-0.33046564 -0.57333124 0.31042525 0.030803792 0.90485996 0.9463368 0.6759337 -0.33193973
0.43958613 -0.047666963
00000000: cb32 a9be d6c5 12bf 0ff0 9e3e 3c58 fc3c
00000010: e7a4 673f 2143 723f fe09 2d3f 01f4 a9be
00000020: 6f11 e13e 6f3e 43bd

bias f4 [2]
0.4975014 0.66335064
00000000: 81b8 fe3e 59d1 293f

weight f4 [1, 2]
-0.6811765 0.7227712
00000000: 9561 2ebf 8907 393f
