Modelos_Grid_Search/Modelo46.pth (torch, 4178 bytes, 5 tensors)

weight f4 [4, 2]
00000000: be98 8f3e 3400 15bf aa61 8d3e 4a7b 2bbf
00000010: c294 ccbd 3a19 f93d 2bff 7dbe 62b8 413f
0.2804622 -0.58203435 0.27613574 -0.66985 -0.09989311 0.12163015 -0.2480437 0.7567197

bias f4 [4]
00000000: 31c2 20be f5b0 f03e dbd5 7e3f c99f 233f
-0.15699078 0.47010008 0.9954507 0.6391569

weight f4 [6, 4]
00000000: 81b9 053f 8f2f ff3e d2a9 193f 81f8 b8be
00000010: 300b c9be 1867 4ebd 57a0 e13e b99a 353f
00000020: 9ab2 003f 9208 403f 554f 06bd a233 3b3e
00000030: aa35 d53e b719 c8be ebdd 39bd 09c8 87be
00000040: 74d1 013d 822a 1f3f 5a60 d43e cbad 86be
00000050: 7812 d93d ab2c 09be d502 95be 748e 07bf
0.5223618 0.49840972 0.6002475 -0.36127093 -0.39266348 -0.050391287 0.44067642 0.70939213
0.50272524 0.7501308 -0.0327905 0.18281415 0.41642505 -0.3908212 -0.045377653 -0.26519802
0.03169389 0.62174237 0.4147976 -0.2630447 0.10599226 -0.13395946 -0.29103723 -0.5295174

bias f4 [6]
00000000: cda6 5abd 2493 4d3f 1d91 9bbe 57f4 d33d
00000010: 9de1 68bc f7ca 9c3e
-0.05338173 0.80302644 -0.3038415 0.103493385 -0.014213947 0.306236

weight f4 [1, 6]
00000000: d47b 0bbf a433 f83e 13bb 91be 0471 8ebe
00000010: 17f4 e4be 6dc0 6bbe
-0.5448582 0.484769 -0.2846304 -0.278206 -0.44717476 -0.23022623
