Modelos_Grid_Search/Modelo23.pth (torch, 4114 bytes, 5 tensors)

weight f4 [2, 2]
-0.046147622 0.13074856 -0.32995284 0.9075767
00000000: 4a05 3dbd f3e2 053e 94ef a8be f256 683f

bias f4 [2]
0.12808518 0.85904646
00000000: c328 033e 78ea 5b3f

weight f4 [3, 2]
0.55282575 0.11570437 0.021908225 0.42497763 -0.084589206 1.1772949
00000000: fd85 0d3f 6af6 ec3d e178 b33c ab96 d93e
00000010: 1b3d adbd 99b1 963f

bias f4 [3]
0.03973301 -0.5640369 0.0009879848
00000000: 15bf 223d b964 10bf 457f 813a

weight f4 [1, 3]
0.23213144 -1.2148193 0.92440164
00000000: ddb3 6d3e 337f 9bbf 96a5 6c3f
