Modelos_Grid_Search/Modelo64.pth (torch, 4178 bytes, 5 tensors)

weight f4 [6, 2]
0.13806961 -0.3355402 -0.4038351 -0.58591723 0.62545484 0.4793813 -0.29549798 0.5112915
-0.24270335 0.37409282 0.74204314 -0.52605224
00000000: 1f62 0d3e edcb abbe 79c3 cebe acfe 15bf
00000010: cf1d 203f 7771 f53e 834b 97be 00e4 023f
00000020: 3a87 78be 1889 bf3e 8af6 3d3f 5cab 06bf

bias f4 [6]
0.74182993 -0.5328931 -0.5153958 0.7589808 0.5936724 -0.24441966
00000000: 91e8 3d3f af6b 08bf fbf0 03bf 914c 423f
00000010: eafa 173f 2649 7abe

weight f4 [4, 6]
0.5144203 0.60069454 -0.17507444 -0.5118714 -0.37819648 0.3338536 0.096763335 -0.293289
0.29688928 0.5485439 0.07933501 -0.41346058 -0.21811734 -0.29914588 0.6239435 0.073286854
0.5771926 -0.11814151 0.023502218 0.13665684 -0.006380391 -0.5548031 -0.23780623 0.3576158
00000000: 0cb1 033f 1ec7 193f b746 33be 010a 03bf
00000010: f8a2 c1be dcee aa3e db2b c63d fa29 96be
00000020: df01 983e 5f6d 0c3f 657a a23d 1bb1 d3be
00000030: 275a 5fbe a629 99be c3ba 1f3f 6b17 963d
00000040: e5c2 133f 2df4 f1bd b987 c03c c5ef 0b3e
00000050: 9912 d1bb 9307 0ebf 7a83 73be 6b19 b73e

bias f4 [4]
0.58826095 -0.011355355 0.26885566 -0.24719457
00000000: 4598 163f d00b 3abc 73a7 893e 9320 7dbe

weight f4 [1, 4]
-0.7874176 0.50577146 0.5618616 -0.14419381
00000000: 3394 49bf 3d7a 013f 29d6 0f3f 8ba7 13be
