Modelos_Grid_Search/Modelo66.pth (torch, 4242 bytes, 5 tensors)

weight f4 [6, 2]
0.77084094 -0.36531657 0.28265846 -0.88865817 0.22795087 0.6706854 0.021333104 -0.38495103
0.4414161 -0.41637892 0.3909407 -0.8575896
00000000: d555 453f c60a bbbe 9cb8 903e 1a7f 63bf
00000010: f46b 693e 0ab2 2b3f c3c2 ae3c 4d18 c5be
00000020: 4b01 e23e 9e2f d5be 6129 c83e fe8a 5bbf

bias f4 [6]
-0.13959928 0.5413375 -0.19884714 0.24757321 -0.5232163 0.7179787
00000000: 1df3 0ebe 1895 0a3f 969e 4bbe d583 7d3e
00000010: 81f1 05bf 74cd 373f

weight f4 [6, 6]
0.03314142 -0.40015864 0.15252294 -0.14844927 0.17820698 -0.39299887 0.40212092 0.4616226
0.041870676 0.3568204 -0.22508678 0.09121601 0.06480962 -0.14703919 0.041684944 0.62918866
-0.23914443 0.6198738 0.43234897 0.32721543 0.032503277 0.6731421 -0.16670465 0.23284486
0.47329208 -0.0138054425 0.22425127 -0.22563227 0.42244834 -0.27917898 -0.4466598 -0.26156896
0.79882675 -0.1930832 0.16482145 -0.1581983
00000000: 4cbf 073d 98e1 ccbe f92e 1c3e 1603 18be
00000010: e47b 363e 2637 c9be cbe2 cd3e cc59 ec3e
00000020: 9680 2b3d 2ab1 b63e 267d 66be 76cf ba3d
00000030: e8ba 843d 7191 16be d5bd 2a3d 8212 213f
00000040: 47e2 74be 0db0 1e3f d85c dd3e c888 a73e
00000050: 2822 053d 0a53 2c3f a0b4 2abe e26e 6e3e
00000060: 5753 f23e 3930 62bc 20a2 653e 250c 67be
00000070: 264b d83e 8cf0 8ebe 98b0 e4be 5eec 85be
00000080: e97f 4c3f 9ab7 45be f4c6 283e bcfe 21be

bias f4 [6]
-0.37424645 -0.23507373 -0.0645768 -0.12431794 -0.10161508 0.87470055
00000000: 3b9d bfbe 2bb7 70be d740 84bd 679a febd
00000010: 911b d0bd 60ec 5f3f

weight f4 [1, 6]
-0.11272491 -0.48235998 -0.46068573 -0.29431 0.45258826 0.4646556
00000000: 51dc e6bd e3f7 f6be 00df ebbe cdaf 96be
00000010: a6b9 e73e 57e7 ed3e
