Modelos_Grid_Search/Modelo32.pth (torch, 4114 bytes, 5 tensors)

weight f4 [3, 2]
00000000: e527 c73e 2b7d 5ebf 9147 83be 73b7 603f
00000010: 3aa0 0cbe a74b 083f
0.38897625 -0.8690974 -0.25640538 0.8777992 -0.13732997 0.53240436

bias f4 [3]
00000000: 7c46 af3e dc6c fb3e a97a 2c3f
0.34233463 0.4910649 0.67374665

weight f4 [2, 3]
00000000: 935e c43d 5f41 823f 88aa 9f3e 15a8 4c3f
00000010: 0441 5dbd 06f1 54be
0.09588351 1.01762 0.31184793 0.7994397 -0.05401708 -0.20795068

bias f4 [2]
00000000: 644f c73e e3ba c53e
0.38927758 0.38619146

weight f4 [1, 2]
00000000: f4e6 8e3e 2359 90bf
0.27910578 -1.1277202
