Modelos_Grid_Search/Modelo26.pth (torch, 4114 bytes, 5 tensors)

weight f4 [2, 2]
0	0xbeab8be5	-0.3350517
1	0xbef02237	-0.46901104
2	0xbe6f4eb4	-0.23369867
3	0x3f0cbc9c	0.54975295

bias f4 [2]
0	0xbf2d9ec3	-0.67820376
1	0x3f3b0b36	0.7306398

weight f4 [6, 2]
0	0x3ec3421c	0.38136375
1	0xbf717cb6	-0.9433092
2	0x3eef0d3b	0.46689782
3	0xbf680c35	-0.90643626
4	0xbe0205b9	-0.12697496
5	0x3f525e97	0.8217558
6	0xbebab3da	-0.3646534
7	0x3f2a1348	0.6643567
8	0xbf1fab79	-0.6237102
9	0x3eabb3a1	0.33535483
10	0xbd87cd9d	-0.066310145
11	0x3ed223d8	0.41042972

bias f4 [6]
0	0x3f5978ea	0.84950125
1	0x3f6d31cf	0.92654127
2	0x3daaddb5	0.083430685
3	0xb8904c67	-6.880686e-05
4	0x3ebab24f	0.36464164
5	0x3945e1c5	0.0001887149

weight f4 [1, 6]
0	0xbed41c2d	-0.41427746
1	0xbf34e6d3	-0.7066471
2	0x3ec4d457	0.38443252
3	0x3f00442f	0.5010404
4	0xbce6d8af	-0.028179495
5	0x3f0fa205	0.561066
