Modelos_Grid_Search/Modelo36.pth (torch, 4178 bytes, 5 tensors)

weight f4 [3, 2]
00000000: 233a 84bd a068 9bbe 13d7 b9be 010c 7a3f
00000010: 12ca 08bf 3039 143e
-0.06456401 -0.3035326 -0.362969 0.97674567 -0.53433335 0.1447494

bias f4 [3]
00000000: e3d1 28bf b914 8f3f 0b46 2dbf
-0.6594526 1.1178199 -0.67685

weight f4 [6, 3]
00000000: bd72 023f a9da 0ebf 7b53 423e 6dc5 efbe
00000010: 14a6 18bf aa3b 2f3c fd69 a3be 96f0 5fbe
00000020: ae6d 943e 6e36 9c3e e826 383f 07e9 bf3e
00000030: 9600 993e 4bd7 d03e eff0 00bf 3494 4fbe
00000040: c374 443f 76b3 28be
0.50956327 -0.558024 0.18977158 -0.4683031 -0.59628415 0.010695377 -0.319168 -0.2186912
0.2898993 0.30510277 0.71934366 0.37482473 0.2988326 0.40789255 -0.50367635 -0.20271379
0.76740664 -0.16474709

bias f4 [6]
00000000: e57f 5dbe 9222 6e3f 1ee7 30be d274 5db8
00000010: 63b1 11bf 2ffe 8fb8
-0.21630819 0.930215 -0.17275664 -5.2799303e-05 -0.56911296 -6.866117e-05

weight f4 [1, 6]
00000000: f1a7 21ba fe81 07bf 802f b1bd e0a4 1f3f
00000010: e2e3 54bf 1530 063f
-0.0006166688 -0.5293273 -0.08651638 0.62360954 -0.8316022 0.5241712
