Modelos_Grid_Search/Modelo65.pth (torch, 4178 bytes, 5 tensors)

weight f4 [6, 2]
0	0x3ee9f7ae	0.45696777
1	0xbede8e29	-0.43467835
2	0xbd2e6488	-0.042576343
3	0x3ea40676	0.3203618
4	0xbea60ae8	-0.32430196
5	0x3f7155b7	0.94271415
6	0xbe09bc9d	-0.13450857
7	0x3ef6c579	0.48197535
8	0x3ebe71de	0.3719625
9	0xbf6e474e	-0.9307755
10	0xbc1314c0	-0.008977115
11	0xbdb94098	-0.090455234

bias f4 [6]
0	0x3f14dc34	0.58148503
1	0x3f0fc177	0.5615458
2	0x3e9c5838	0.30536056
3	0x3eef6885	0.4675943
4	0xbe8f38d2	-0.27973038
5	0xbed82ea7	-0.42223093

weight f4 [5, 6]
0	0x3e88216f	0.26588008
1	0x3e52c477	0.20582758
2	0x3ebc14b8	0.36734557
3	0xbcf9fefc	-0.030517094
4	0xbeea751f	-0.4579248
5	0x3d876a40	0.066120625
6	0xbe3e0a98	-0.18558729
7	0x3df3ce4d	0.11904583
8	0x3e080100	0.13281631
9	0x3f1d016b	0.6133029
10	0xbf1ab4c7	-0.60432094
11	0x3d934748	0.0719133
12	0xbf034220	-0.51272774
13	0xbe61f99f	-0.22067879
14	0x3e9ba31e	0.30397886
15	0x3e9921f2	0.2990871
16	0x3da7f330	0.08200681
17	0xbe089682	-0.13338664
18	0x3d534c55	0.051586468
19	0xbb0171e1	-0.0019751715
20	0xbe52ed9c	-0.20598453
21	0x3d8bc249	0.06824166
22	0x3f3e766d	0.74399453
23	0x3ec6ca18	0.3882606
24	0x3f0b4229	0.5439783
25	0xbe9b335f	-0.3031263
26	0xbf0abec1	-0.5419732
27	0xbd1992df	-0.037493583
28	0x3eb7a580	0.35868454
29	0xbd142518	-0.036168188

bias f4 [5]
0	0x3e35a61c	0.17739147
1	0x3edb3813	0.4281622
2	0xbeac0995	-0.3360106
3	0x3e831ca7	0.25607798
4	0x3f0995a9	0.5374399

weight f4 [1, 5]
0	0x3f2c18ec	0.6722553
1	0x3f239272	0.6389533
2	0xbf0dd524	-0.5540335
3	0xbe97469a	-0.29546052
4	0xbedf6836	-0.43634194
