Modelos_Grid_Search/Modelo63.pth (torch, 4178 bytes, 5 tensors)

weight f4 [6, 2]
0.047773123 -0.2690941 -0.22894259 -0.29836804 0.50052494 -0.8698587 -0.65567523 -0.3660867
0.4261777 -0.59865355 -0.09183966 0.45022172
00000000: c0ad 433d b4c6 89be ed6f 6abe b2c3 98be
00000010: 6722 003f 0faf 5ebf 55da 27bf b76f bbbe
00000020: f733 da3e 5c41 19bf 6f16 bcbd 7683 e63e

bias f4 [6]
0.32555303 -0.30320367 0.26805827 -0.7529583 0.77225584 0.29287434
00000000: e3ae a63e 833d 9bbe ef3e 893e e0c1 40bf
00000010: 8fb2 453f a0f3 953e

weight f4 [3, 6]
0.6082189 -0.017532611 0.5040333 0.563722 0.38620716 -0.42202485 0.610071 0.22574136
0.13369001 0.45292014 0.6168531 -0.54371226 -0.07161358 -0.0416182 0.12390566 -0.3319336
-0.32667387 0.107200086
00000000: 3cb4 1b3f 8da0 8fbc 5408 013f 1650 103f
00000010: f2bc c53e a413 d8be 9d2d 1c3f be28 673e
00000020: 09e6 083e 26e5 e73e 16ea 1d3f ba30 0bbf
00000030: 24aa 92bd d877 2abd 40c2 fd3d 33f3 a9be
00000040: cc41 a7be b88b db3d

bias f4 [3]
0.098679036 0.022614513 -0.34201425
00000000: 3c18 ca3d 1242 b93c 7e1c afbe

weight f4 [1, 3]
-0.7041773 -0.47027338 -0.54894507
00000000: f744 34bf acc7 f0be aa87 0cbf
