Modelos_Grid_Search/Modelo65.pth (torch, 4178 bytes, 5 tensors)

weight f4 [6, 2]
000000 1d d6 9e be 27 a0 b4 bd ac a0 14 3f 80 4a b5 be
       -0.3102273 -0.08819609 0.58057666 -0.354084
000010 87 64 7e be 83 9c 40 bf 70 d6 08 3f a7 d5 de 3d
       -0.24843036 -0.7523882 0.53452206 0.10880595
000020 4f a2 79 3e c2 a2 55 bf ad 38 0e 3f ca eb 68 3d
       0.24378322 -0.83451474 0.5555523 0.05686549

bias f4 [6]
000000 3a a5 32 bf 41 bb 06 be cf f2 13 3f 4f 2f 4a be
       -0.69783366 -0.13157369 0.5779237 -0.1974461
000010 e9 e2 85 3f 20 18 07 be
       1.0459872 -0.13192797

weight f4 [5, 6]
000000 51 26 17 3e a8 78 b4 3e 8d c0 8b 3e 42 37 04 be
       0.1476071 0.35248303 0.27295342 -0.12911704
000010 c2 31 16 3f cd 84 9b bd e2 27 fd bd 5c c9 0e 3e
       0.58669674 -0.07593689 -0.12361123 0.13944
000020 86 f2 50 3e 70 2e 2b 3e d7 9f 34 3f 98 02 b0 be
       0.20405015 0.16716933 0.70556396 -0.3437698
000030 70 16 cf 3c 80 99 a3 bb c0 ae b0 bd f4 d4 1c 3e
       0.025279254 -0.004992664 -0.08627081 0.1531561
000040 48 58 21 be c1 b0 af be e1 27 4f be ba 22 9d 3e
       -0.15756333 -0.3431454 -0.20230056 0.30690557
000050 29 9e a4 bd b1 54 d7 be de 63 a3 be b0 e6 93 be
       -0.08037979 -0.42056802 -0.3191213 -0.28886938
000060 f5 a9 27 bb ae 2c da 3e 6f b4 10 3f 58 46 5b 3e
       -0.002558348 0.42612213 0.5652532 0.21413553
000070 af 26 d9 3e 43 44 c5 be
       0.42412326 -0.38528642

bias f4 [5]
000000 13 89 09 ba 04 84 7e ba 5f cb b9 be 22 2f 78 bb
       -0.0005246561 -0.0009709003 -0.36287972 -0.003786989
000010 20 51 cf b9
       -0.0003954256

weight f4 [1, 5]
000000 bf d1 95 be df 70 47 bf 04 a2 5c 3e 44 c0 f5 bd
       -0.29261586 -0.779066 0.21546179 -0.119995624
000010 8a a8 88 be
       -0.26691085
