Modelos_Grid_Search/Modelo66.pth (torch, 4242 bytes, 5 tensors)

weight f4 [6, 2]
0	0xbdfa8c8f	-0.12233841
1	0xbf0c5af2	-0.5482627
2	0xbd3921fd	-0.04519843
3	0x3f231b10	0.6371317
4	0x3e246782	0.1605511
5	0xbeaa0ec0	-0.33214378
6	0x3eb5dae3	0.3551856
7	0xbf74289e	-0.95374477
8	0xbdfc900e	-0.12332164
9	0xbd9052a0	-0.070470095
10	0xbe3ee0d5	-0.18640454
11	0x3f2ab0a2	0.6667577

bias f4 [6]
0	0x3dc92380	0.09821224
1	0xbe8c85b1	-0.27445748
2	0x3f7949ad	0.97378045
3	0xbd0c95e4	-0.034322634
4	0x3f71dcf2	0.9447776
5	0x3f65751b	0.89631814

weight f4 [6, 6]
0	0x3d99b29c	0.0750477
1	0xbda0676f	-0.078322284
2	0x3d4b8547	0.04968765
3	0xbdfdb78c	-0.123885244
4	0xbec52e8a	-0.3851207
5	0x3e3b6717	0.18301044
6	0xbe109ca6	-0.14122257
7	0x3f32a709	0.69786125
8	0x3eb53e18	0.35398936
9	0xbe607681	-0.21920206
10	0x3c8a16d5	0.01685659
11	0x3f25fe2e	0.6484097
12	0x3efc5bd4	0.4928881
13	0xbf386209	-0.7202459
14	0x3f3ac79f	0.7296085
15	0x3f266f20	0.65013313
16	0x3f3f38ee	0.7469624
17	0xbe9485ab	-0.2900823
18	0x3eaae236	0.3337571
19	0xbe0796a6	-0.13241062
20	0xbe9e33d0	-0.30898905
21	0xbebbffcd	-0.36718598
22	0x3cdc3a40	0.026883245
23	0xbdd3e170	-0.10345733
24	0xbecc566e	-0.3990969
25	0x3f396981	0.7242661
26	0xbdcea5ac	-0.10090193
27	0x3e08de67	0.1336609
28	0x3e5bb318	0.21455038
29	0x3da28e5e	0.07937311
30	0xbf3b8229	-0.73245484
31	0xbe8ebd1c	-0.27878654
32	0xbef1105b	-0.4708279
33	0x3d25739f	0.040393468
34	0xbcb41981	-0.021984817
35	0x3e997214	0.29969847

bias f4 [6]
0	0xbdead1ef	-0.11465823
1	0xbe067ebd	-0.13134284
2	0x3be1cdcf	0.0068909894
3	0xbe33021f	-0.17481278
4	0x3e8117eb	0.2521356
5	0xbba0dffe	-0.0049095144

weight f4 [1, 6]
0	0xbe4f8bb1	-0.20268132
1	0x3f232a88	0.6373677
2	0xbf023b4b	-0.50871724
3	0x3e8860a2	0.26636225
4	0x3ebda2b5	0.37038198
5	0xbeb5215c	-0.35377014
