Modelos_Grid_Search/Modelo16.pth (torch, 4114 bytes, 4 tensors)

weight f4 [1, 2]
00000000: 5f04 ecbd 86c8 4c3f
-0.11524271 0.79993474

weight f4 [6, 1]
00000000: 865a 28bf 90ac ed3e 089c d4be 1c44 ad3f
00000010: 5796 033e fc6b 84be
-0.6576313 0.46420717 -0.41525292 1.353641 0.12850319 -0.25863636

bias f4 [6]
00000000: f0ff f4bd b3a5 5cbe 48c3 07be 9058 03ba
00000010: 79ea 94be 8b77 c93f
-0.11962879 -0.21547584 -0.13258088 -0.000501045 -0.29085138 1.5739607

weight f4 [1, 6]
00000000: 3ecf 8d3e 9773 19bf 7232 a83e 271e 7f3f
00000010: a96d 1bbe aa49 1cbf
0.27697176 -0.59942 0.32850987 0.99655384 -0.15178551 -0.610499
