Modelos_Grid_Search/Modelo44.pth (torch, 4178 bytes, 5 tensors)

weight f4 [4, 2]
000000 7e 73 a6 bd a6 ea a5 be 44 84 5c 3e 41 a5 31 bf
       -0.08127497 -0.32405585 0.2153483 -0.6939278
000010 f3 fd 73 be 67 22 6f 3f e9 c4 a1 3e 8f 17 44 be
       -0.23827343 0.9341187 0.31595543 -0.19149612

bias f4 [4]
000000 a2 cc 26 3f 16 e1 ab 3c af e2 28 be c8 8c d8 be
       0.65155995 0.020981353 -0.16492723 -0.42294908

weight f4 [4, 4]
000000 ee eb cd be 10 51 eb bd 96 a3 28 3f be 5a 55 3e
       -0.40219063 -0.11490071 0.6587461 0.20835397
000010 b2 36 43 3e 26 8f 3b 3f 3d c4 27 be ce 36 66 3e
       0.19063833 0.732653 -0.16383453 0.22481844
000020 86 f6 a7 be 50 ea ba be 60 a8 9d bc d6 18 9b 3e
       -0.3280527 -0.3650689 -0.019245327 0.30292386
000030 f4 f3 f0 3e bd c9 44 3f fe d1 1c be 2d 6d 3a bc
       0.4706112 0.7687033 -0.1531448 -0.011378569

bias f4 [4]
000000 1f 1b 62 3f 71 89 21 3e 20 ee 08 bd f2 30 1a 3e
       0.88322634 0.15775086 -0.03343022 0.15057734

weight f4 [1, 4]
000000 25 fe 65 3f 3e 06 14 bf 1e ea 8c be 24 56 53 bf
       0.8984092 -0.57822025 -0.27522367 -0.82553315
