Modelos_Grid_Search/Modelo24.pth (torch, 4114 bytes, 5 tensors)

weight f4 [2, 2]
00000000: e0b5 aebd 464d 863e e4a7 cbbe 38ff 923f
-0.08530784 0.2623083 -0.39776528 1.1484137

bias f4 [2]
00000000: 7e9d 34bf fe60 6d3f
-0.70552814 0.92726123

weight f4 [4, 2]
00000000: 5295 0abf b1e3 de3e ae03 08bf 3095 673f
00000010: 70e4 87be a40f 08be fcdd 003e 274d 12bf
-0.54134095 0.4353309 -0.53130615 0.9046202 -0.2654147 -0.13287216 0.1258468 -0.57148975

bias f4 [4]
00000000: 4d1f 31bf 08a7 1e38 26e4 fdbe 8f3e 2abf
-0.69188386 3.7825695e-05 -0.49588126 -0.66501707

weight f4 [1, 4]
00000000: 2047 19bf 43be 643f 80d3 eebb 78df aa3d
-0.59874153 0.89352816 -0.0072883964 0.083434045
