Modelos_Grid_Search/Modelo46.pth (torch, 4178 bytes, 5 tensors)

weight f4 [4, 2]
0	0x3ec3dfce	0.38256687
1	0x3edf2230	0.4358077
2	0x3e755d3c	0.23961347
3	0xbeefb262	-0.46815783
4	0x3ebdca26	0.3706829
5	0xbeb2594c	-0.34833753
6	0xbe95ef52	-0.2928415
7	0xbec26a86	-0.37971896

bias f4 [4]
0	0x3f6429d7	0.8912634
1	0x3f71699f	0.9430179
2	0x3e6fa3a0	0.23402262
3	0xbf3c4435	-0.73541576

weight f4 [6, 4]
0	0xbf0b8ca8	-0.545115
1	0x3d5a603b	0.05331443
2	0x3eb87057	0.36023208
3	0x3eeb5e7b	0.4597052
4	0x3cd89648	0.026438847
5	0x3f4640e8	0.7744279
6	0x3ea60ca5	0.32431522
7	0x3f1ee64c	0.62070155
8	0x3f809a90	1.0047169
9	0xbeb18d69	-0.346782
10	0xbe541bf6	-0.20713791
11	0xbcbacc33	-0.022802448
12	0x3cc02c37	0.023458583
13	0x3f596d1f	0.8493213
14	0xbe798e6c	-0.24370736
15	0x3e2b2bf7	0.1671599
16	0x3d202bb5	0.039104182
17	0x3ee5c3f4	0.44876063
18	0xbb2b3ade	-0.0026127617
19	0x3ef5883a	0.47955495
20	0xbd3ddab3	-0.046351146
21	0x3eecc4bb	0.46243843
22	0x3e4b583b	0.19857876
23	0x3f07c8ba	0.5304066

bias f4 [6]
0	0xbdb7aa51	-0.08968032
1	0xbcc66d4e	-0.024222042
2	0x3f18e5b7	0.5972552
3	0xbcb02731	-0.021503063
4	0xbd12ebd7	-0.035869446
5	0x3d306a41	0.04307008

weight f4 [1, 6]
0	0xbe8ef747	-0.27923033
1	0xbed647c9	-0.41851643
2	0x3f30510d	0.68873674
3	0xbea45f1e	-0.3210382
4	0xbf2527ee	-0.6451405
5	0xbf0191cd	-0.506131
