Modelos_Grid_Search/Modelo43.pth (torch, 4114 bytes, 5 tensors)

weight f4 [4, 2]
000000 9c 52 d1 3e b5 5a 84 bf aa 56 1f be 72 1e 03 3f
       0.40883338 -1.0340182 -0.15560403 0.5121833
000010 b8 82 c4 be 31 67 55 3f a3 88 6e 3f d0 95 a1 3e
       -0.3838098 0.8336058 0.9317724 0.3155961

bias f4 [4]
000000 ec 06 62 3f 87 67 28 3f 81 32 4f 3f de 01 b1 be
       0.8829181 0.6578297 0.8093644 -0.34571737

weight f4 [3, 4]
000000 27 d0 3b 3f a3 f1 c0 be 97 84 2f be ce 20 e6 3e
       0.7336449 -0.37684354 -0.17140423 0.44946903
000010 8f aa 38 3d d1 85 0c 3f 3c 5d b4 3e 53 83 ad 3e
       0.045084532 0.5489169 0.35227382 0.33889255
000020 f7 81 43 3d 6d 6e 10 3f b0 44 16 3f 6e 80 e7 3e
       0.047731366 0.56418496 0.5869856 0.45215172

bias f4 [3]
000000 95 ab cb bd ff 4b e4 bd 4c 9c 7f be
       -0.09944836 -0.111473076 -0.24961966

weight f4 [1, 3]
000000 5b 23 3e bf 34 6d de 3e 6b ce 8f 3e
       -0.742727 0.4344269 0.28087172
